models/deep_learning/deepwide_model.pt (torch, 644194 bytes, 10 tensors)

wide.wide_linear.weight f4 [60817, 1]
00000000: bca5 40bf dce1 b8bd d46f 563f e24a 313f
00000010: 33cc c7b9 a8ef 073f e67f 393e 3cb2 debe
00000020: fea1 a3bb f544 68bf 486f cc3d f1c4 94be
00000030: 8d2e 073e 4296 2ebe dabd 0b3f 404f 833e
00000040: 54e2 2d3e 3b3d 183f 2e88 e83e c144 44bf
00000050: 8f35 6c3d 06a8 8cbe f0ea e3be be0d 5abf
00000060: cf23 1b3d a049 79bd c593 733d 2432 3e3f
00000070: 92c2 573c 1ec9 57bf ce83 203f 475b fd3d
00000080: 13f3 0cbf f85d 4e3f 6826 803e e740 42bf
00000090: ff2b 623e db7e b73e c275 073f 7744 513e
000000a0: 7a3b 5b3f ef8d 0c3f 2af7 ed3d 257e 353f
000000b0: 6f2e e8be f3c9 3d3f cd50 39bc 3178 1abf
000000c0: 2f67 1f3f 067d 6cbe 12ca f43e b547 0abe
000000d0: 9311 a33e 1931 eb3e 7960 ca3c a21a 2e3f
000000e0: dca7 ce3e ccb6 123e e144 3bbf 4bf9 d5be
000000f0: e5a1 3dbf 1080 2abf 2857 2e3f 740a eebe
00000100: c3ad 2d3f d4c0 1e3d 40fc 333f 539d fe3d
00000110: e1d6 483e 14e6 4abe 2067 b03e 80be 823e
00000120: 50bc 243f 0721 b9bd 14d6 943e 599d 39be
00000130: 3d95 b63b b137 18bf 6ef6 2b3e 18f5 28bf
00000140: 3095 c83e 1015 3bbf c148 003e 3cf5 20bf
00000150: a5b2 433f ada8 363e 5477 363e 0a8b 433f
00000160: 0194 02bf 9c6d 363f 12cc 12be 1827 21bf
00000170: 7d5f 7abe 3524 573e 1556 3abd 72a0 f43d
00000180: 7ff1 57bf 7f71 0fbf a577 83be c038 a0bd
00000190: e825 14bf 9445 7f3e f5da ff3d b401 dd3d
000001a0: 305e ed3e 0b1d 583f 5c5c 9fbe 83ae 7d3e
000001b0: 02d8 423f aff1 24bf d664 283f 16e2 37bd
000001c0: 9393 a4be 189e 34be cc3a 8f3d 1e19 1d3f
000001d0: 914e e23e a292 46be 0a84 d5bd 1167 e83e
000001e0: 9911 d33e 93c0 52bd 5a20 2d3d f791 d7be
000001f0: ee86 253e a130 c53e 0c0d 403f 8092 a43e
00000200: 0408 f63e 94b8 c03c 67eb 6fbe af95 1d3f
00000210: 511a 7f3f 829d 463f c3e9 4c3e 5241 32bf
00000220: e2eb 483e 3e49 083f 2330 063f ad80 8bbe
00000230: 5204 683e 7ed3 bb3e 1853 53bf 49eb bd3e
00000240: 973a 2c3f 8b61 7e3d b7b7 f9be 105f f5be
00000250: 2e41 1a3e eaae 00be 7a3b 313f cfaf 8ebe
00000260: bc53 383f 295c 0b3f 3697 0fbf 7bcb 0c3f
00000270: 71ec f2bc 7545 553e 7efc 1fbf 2322 013e
00000280: 9a48 8bbe 0c91 123f 2537 3fbf 728b 07bf
00000290: 1fa3 323e aaf8 13bf b0fc 473e 9bc1 31bf
000002a0: 8d01 543f 13ba 18bf e797 f63e 7cfa 3abf
000002b0: 569d 303f 4017 293f 9683 ecbe 880a 4abf
000002c0: fc30 cdbd a54b 3b3e f226 1e3e 69fc bebe
000002d0: 1f11 ff3e 689a 15bf a703 bbbe d578 c2be
000002e0: bc57 2fbf d6a0 373e 9d7e 82be 4f34 d7be
000002f0: 6818 803e 285a 0abe 713b 883e d013 fc3d
00000300: 482c f9be 4760 3ebf 8f0b 64be a853 09bf
00000310: 139f 3fbf 6537 ecbe 52cd 99be 1028 48be
00000320: 04de 9d3e b06c ef3e d9c4 0abd 02f7 88bf
00000330: aaae 40bf df75 fabe e6e0 0a3e a723 7bbe
00000340: ae9e 9abd a4b5 b8bc 7dc9 8b3e 51f3 0c3f
00000350: 1c1d 5e3f fab5 a23e aa23 583f 91f0 253f
00000360: 4f46 5f3e 6acb dc3e f6b6 24bd 4016 c1be
00000370: c804 06be de2b e03e 0ee4 a7bd 333f 3f3f
00000380: 40d7 3fbf 180e 483f 5713 833e 00ac 0a3e
00000390: 3ca2 6c3e fcc0 91be 69c3 743d cb36 fcbe
000003a0: e9e1 ac3d f5ca 213f 4ecf ce3e d41a 5cbd
000003b0: 737e 523e 9fee aa3e d7ad 55be 3c32 cb3e
000003c0: c8ae 333f 035e 253e 1c14 9ebe f6da f5bd
000003d0: 423b be3e 2918 49be 3bc6 bb3e e801 8a3e
000003e0: d114 79be 7a8c 913e bed0 cf3e de83 aebe
000003f0: bd64 85bc bf39 203e 4924 efbe aca9 0c3f
-0.7525289 -0.09027454 0.83764386 0.6925489 -0.00038108378 0.5310006 0.18115196 -0.43495357
-0.004993676 -0.9073022 0.09982163 -0.29056504 0.13201351 -0.17049506 0.54586565 0.256464
0.16980869 0.5946843 0.45416397 -0.7666741 0.057668265 -0.27471942 -0.4451518 -0.8517722
0.037875947 -0.06086123 0.059467096 0.7429526 0.013168948 -0.84291255 0.6270112 0.123709254
-0.550584 0.80612135 0.25029302 -0.75880283 0.22087096 0.3583897 0.5291406 0.20436274
0.8563763 0.54904073 0.116194084 0.70895606 -0.45347926 0.74136275 -0.011310768 -0.6033965
0.6226682 -0.23094568 0.47810417 -0.13503917 0.31849346 0.45935896 0.024704205 0.6800939
0.40362442 0.14327544 -0.73151976 -0.41791758 -0.74075156 -0.6660166 0.6810174 -0.4649235
0.67843264 0.038758114 0.7030678 0.12432351 0.1961322 -0.1981433 0.34453678 0.25535965
0.6434984 -0.090395026 0.2906958 -0.1812643 0.00557199 -0.5945998 0.16793224 -0.65998983
0.3917632 -0.73079014 0.12527753 -0.628742 0.76444465 0.17837782 0.17818958 0.7638403
-0.51007086 0.71261 -0.14335659 -0.6295028 -0.24450488 0.21009906 -0.04549225 0.11944665
-0.8435287 -0.56032556 -0.2567722 -0.07823324 -0.5787034 0.24928886 0.124929346 0.107913405
0.46360922 0.84419316 -0.31125152 0.24773602 0.7611085 -0.6443128 0.65778863 -0.044893347
-0.3214384 -0.17638433 0.069936365 0.6136645 0.44200566 -0.19391873 -0.10425575 0.45391133
0.41224363 -0.051453184 0.04226718 -0.4210355 0.16164753 0.38513663 0.7501991 0.3214302
0.4805299 0.023525514 -0.23429643 0.61556524 0.9964953 0.7758409 0.20011048 -0.6963092
0.19621232 0.5323676 0.524172 -0.2724661 0.22657898 0.36684793 -0.82548666 0.3709357
0.672769 0.062104743 -0.48772976 -0.4792409 0.15063927 -0.12566724 0.6923138 -0.27868506
0.7200277 0.544375 -0.56090105 0.54997987 -0.02965376 0.20827277 -0.6249465 0.12610678
-0.27203828 0.57252574 -0.7469352 -0.5294715 0.17445038 -0.57801306 0.19529986 -0.69436044
0.82814866 -0.59658927 0.48162767 -0.7303846 0.68990076 0.660511 -0.46194142 -0.7892232
-0.10019109 0.18290575 0.15444544 -0.3730195 0.4981775 -0.5843873 -0.36526224 -0.37982813
-0.6849325 0.17932448 -0.25487223 -0.42032096 0.2501862 -0.13510954 0.2660785 0.123084664
-0.48666596 -0.7436566 -0.22270034 -0.53643274 -0.74852103 -0.46136013 -0.3003946 -0.19546533
0.30833447 0.4676261 -0.033879135 -1.0700381 -0.75266516 -0.48918054 0.13562354 -0.24525319
-0.07549797 -0.02254755 0.2730216 0.5505877 0.8676317 0.31779462 0.8442942 0.648202
0.21804164 0.43123943 -0.040213548 -0.37712288 -0.13087761 0.43783468 -0.08197795 0.7470581
-0.7493782 0.78146505 0.25600693 0.13542175 0.23108763 -0.28467548 0.05975667 -0.49260554
0.084415264 0.6320031 0.40392536 -0.053736523 0.20556049 0.33385178 -0.20867096 0.39686763
0.7018857 0.16149144 -0.30874717 -0.12004654 0.37154585 -0.19638123 0.36674675 0.2695458
-0.24324347 0.28427488 0.40588945 -0.34084982 -0.016283387 0.15647028 -0.4670737 0.549464

deeptabular.0.encoder.mlp.dense_layer_0.0.weight f4 [256, 216]
00000000: 66cd 0d3c 5b21 ce3c 1797 3b3e cea7 2a3e
00000010: 7902 b6bc 2fb4 be3d 2a98 073e 64d8 6cbb
00000020: e78f fdbe 7a5e 43be 522c 833d 0b19 91be
00000030: b9a5 ce3d 9fca 963d 439c 113d 0590 20be
00000040: 0071 63be 332b 82be 018b acbe 14ea d8be
00000050: 4b4e afbe beda cc3e 8bed 013e 1635 d0be
00000060: 58da 403e 8675 213e 5e8e c43e 966d 49be
00000070: b7af 81be efb5 a0be af51 9bbd 150b 9f3b
00000080: fe39 acbd faf0 ecbc 8815 0d3e f64a 97bc
00000090: 766b a83e f968 873e 390e 54bd 714e 013e
000000a0: 7985 fabc 507f b43e 59f6 533e 1cbb 0f3d
000000b0: 074d 9ebe 9f11 483d 47e3 c3be 407f 19be
000000c0: b14f 90bd e05b 47be c961 26be f285 cdbe
000000d0: ca3d ac3e e6bc 39bd f5ae d73e 0ca6 283f
000000e0: fcf1 23be 240a 293f 4231 3dbd b2a0 5cbd
000000f0: 8280 8f3d afbf 763e 7a67 c2be 9b97 98bd
00000100: 8524 883e 4831 bd3d 6909 9ebd 6e03 133c
00000110: 52b0 a23e 1f1d 823d 212e 07be 1a2b f4bd
00000120: 8283 5c3e 8142 7fbd e89a 00be 21c7 383e
00000130: 2a45 dfbe af26 053f 626c 55be b027 393e
00000140: 6f14 b3bd 0ba5 23bf a57e 3fbe 18ce 283e
00000150: 40bc 443e 5c2d 5cbd a67f 43be d457 533d
00000160: 2cb7 3d3e 7b8a da3e d026 e23d fe62 8a3e
00000170: cc45 1ebe 1819 bdbe c72d 213b 5f8f 10be
00000180: 0da0 ba3e 924a 89be e763 d2bd 309b 133d
00000190: 2569 d7bc ba7b 9dbc ed77 7abe 3bbc 67be
000001a0: 3b7e 0d3d b4f2 b73d 8f95 4fbe 1b02 d33d
000001b0: a670 ddbe 538a 01be 2099 83bd c79b b33e
000001c0: f6eb bcbe aaff 1cbf f13e 1c3e 431b 82bd
000001d0: 558a 80bd bd5a fd3e a11d 33bf 74d4 9cbd
000001e0: 79fd 05ba a9f3 07be 920f 923e abce 033e
000001f0: 51fc 9cbf e77f 1b3f 7cf5 ca3d 46f7 9b3e
00000200: 4f4e a03e 61fc 463e 53e1 b6bd 5af3 34be
00000210: e07a dcbe f6f5 013f caca e73e bd96 bbbb
00000220: a809 4f3c c9d9 303f b264 1f3f 0b01 e03e
00000230: f3c7 f3bd abbb 8a3f f1eb 56bc 1eeb 543e
00000240: ae85 d1bd b854 d53c 215b 843e aca8 cd3e
00000250: 7a43 13bd 263b 093d b661 b03e eb03 073f
00000260: f2a7 bb3c 9b57 573f c60d 80bd feb0 17bf
00000270: b83a a03d 76be a03e af49 02bf 9420 db3e
00000280: dc07 ac3f a2b9 28bd e3b0 62be e47b 843e
00000290: dc41 d13e 1d4f 783e 16f0 253e db85 7b3d
000002a0: 616f 16bf 0120 49be 28f4 2b3f 5e2a 8c3f
000002b0: 85f3 183f 708d 17bd 04f6 74bd 69ca a23e
000002c0: 261a cc3c c3c1 afbd eef0 153f 6648 113f
000002d0: 32c4 c13e 221f 573e c18d 8e3d 2622 833d
000002e0: 4172 083f 4c3e bf3d 8f98 89bd 38a1 243f
000002f0: a2ca 3d3f 774c ac3e 2299 0b3f 67f1 cb3d
00000300: 83a6 5f3e 8333 653f 2787 6b3e a1ba 85be
00000310: f535 e9be a646 683e 15b0 093f a903 1e3f
00000320: cb1c 27bf 4684 d13d 2e39 a23d 08ec 6e3f
00000330: 76ae 433d 5a01 3b3f 4650 043d ad4b 963e
00000340: fd4c b03e fbe1 723e 3375 bb3e e8fb 653c
00000350: 604c 413f 5bfa 9e3f fcc5 e33e 82e6 c23e
00000360: 86cb e43c 3ccf 1a3c 4248 d73d 345c 053e
00000370: 812a 973e fe16 893e 3bb4 7e3e cdea 67be
00000380: 31af 02be 4e3b 32be 8841 03be 7e1e 80bd
00000390: 9dba 94bd 4685 463e 6a98 7cbd 9c55 cf3c
000003a0: 71b9 a0be 9055 d33d 116c f1bd a2e8 40be
000003b0: 2c40 7a3e 2663 8b3e 4024 4abd 9bfb 963e
000003c0: fa83 92be 725e 473d e7eb 5ebe 849d dfbd
000003d0: 4adb a4bd c326 143e c130 3f3e 502f 9fbd
000003e0: 5c18 3abe f832 c9bd 0a7d 45be 3bea cbbe
000003f0: 69f1 c3ba 8a85 bebe a26e a73d c144 c2bd
0.008654928 0.02516239 0.18319355 0.16665575 -0.022217976 0.09311711 0.1324164 -0.003613972
-0.4952385 -0.19079009 0.06404938 -0.2833942 0.10090203 0.07362866 0.035549413 -0.15679939
-0.22211075 -0.25423583 -0.33699802 -0.42366087 -0.3423942 0.40010637 0.12688272 -0.406655
0.18833292 0.15767488 0.38389868 -0.1967071 -0.25329372 -0.31388804 -0.07583939 0.004853616
-0.08409499 -0.0289235 0.13777745 -0.018468361 0.32894486 0.26447275 -0.051771376 0.1262758
-0.030581223 0.35253382 0.20699443 0.03509055 -0.30918142 0.04884493 -0.38259336 -0.14989948
-0.0704645 -0.19468641 -0.1624824 -0.40141255 0.3364089 -0.045346163 0.4212567 0.6587837
-0.16010278 0.660311 -0.046189554 -0.05386419 0.07006933 0.24096559 -0.3796957 -0.074507914
0.26590362 0.09237915 -0.077166386 0.008972986 0.31775147 0.06353211 -0.1320119 -0.119222835
0.21534541 -0.062319282 -0.12559092 0.18044712 -0.43607455 0.5201215 -0.20842126 0.18081546
-0.08744132 -0.6392371 -0.18700655 0.16484869 0.19212437 -0.053754196 -0.19091663 0.05159743
0.18526906 0.42683777 0.11042559 0.2702865 -0.15456313 -0.36933208 0.0024593936 -0.14117192
0.36450234 -0.26814705 -0.10272961 0.03603667 -0.026295254 -0.019224036 -0.2445981 -0.22630398
0.03454421 0.08981839 -0.20271896 0.10303136 -0.43250006 -0.12650423 -0.06425691 0.35079786
-0.36898774 -0.6132761 0.15258385 -0.06352856 -0.06276385 0.4948329 -0.69967085 -0.0765771
-0.0005111318 -0.13276543 0.28527504 0.12871806 -1.2264501 0.6074204 0.09910104 0.30462092
0.31309745 0.19432212 -0.08929696 -0.17670956 -0.43062496 0.5076593 0.45271903 -0.0057247565
0.01263658 0.69082314 0.62263024 0.43750796 -0.11903372 1.0838522 -0.013117776 0.20792815
-0.102305755 0.026041374 0.25850776 0.4016775 -0.035953023 0.033503674 0.34449548 0.52740353
0.022907231 0.8411805 -0.06252627 -0.59254444 0.078237 0.3139531 -0.5089368 0.42798293
1.3439898 -0.04119266 -0.2213779 0.2587577 0.4087056 0.2424893 0.16204867 0.06140695
-0.587637 -0.19641115 0.6716943 1.095043 0.5974658 -0.03700012 -0.05980493 0.31795052
0.024914812 -0.08581879 0.58570755 0.56751096 0.37844998 0.2100797 0.06960631 0.06402998
0.5329934 0.09338054 -0.06718551 0.643085 0.7413732 0.33652088 0.5453054 0.09958153
0.21840863 0.89531726 0.23000775 -0.2611895 -0.45548978 0.226832 0.53784305 0.61724335
-0.6527831 0.10230307 0.079210624 0.93328905 0.0477738 0.7304894 0.032303117 0.2935461
0.34433737 0.23719017 0.36612853 0.01403711 0.75507164 1.2420152 0.44486988 0.38066489
0.027929079 0.009448823 0.10511829 0.13023454 0.29524615 0.26775354 0.2487344 -0.22648163
-0.12762143 -0.17405435 -0.12817967 -0.06255816 -0.07262156 0.19386777 -0.06166879 0.025309376
-0.3139148 0.10319054 -0.1178819 -0.18838742 0.24438542 0.27224082 -0.049350977 0.29488835
-0.28616315 0.048674054 -0.21769677 -0.109187156 -0.080496386 0.14467911 0.18670942 -0.07772696
-0.18173355 -0.09824175 -0.1928598 -0.3982714 -0.0014949265 -0.37211257 0.081753984 -0.0948577

deeptabular.0.encoder.mlp.dense_layer_0.0.bias f4 [256]
00000000: 27a9 a2bc 3ecf 91be cefa 7cbe 250c 823d
00000010: 9df6 cfbe 964b 043e 4f2b dbbd 3cf2 8f3e
00000020: 5b75 46be b831 64be 9537 cbbe 1c13 c8bd
00000030: 11bc 44bc c5ee 06be ab55 41be eb2b 9abe
00000040: 85b1 3e3d ce62 893b 5d19 163e 557b 2dbe
00000050: 9031 83be 9801 91be af3b a6be 54bf 71be
00000060: 939d 723d 35c5 84be c417 823e 26ac d0be
00000070: 4a11 7a3e 7c38 5fbe 1436 ddbd 8a97 c63d
00000080: 1487 9dbe 9e6b bbbd bfd8 62be 020a a7be
00000090: 6ebe d8bd f71e 98be 19fc 88bd f18f 983e
000000a0: 40f0 df3c 2f33 253e 8226 50be 4eeb f8be
000000b0: 6e0f dabc 6737 bdbe 2f91 c6be 861a f8bd
000000c0: 83b3 8c3e 7c3e 15be 09f5 35bd 8a14 b6be
000000d0: 38db 45be 1d90 023f 3d88 35ba 04af d1be
000000e0: 9c52 dabe c9b3 893c d3cd b63c eeac 21be
000000f0: af41 99bb 96e8 4e3d 6c8a c8bd cf85 83be
00000100: 135e 88bd b679 d63d a6f0 f8be 66b0 ddbd
00000110: 3ca1 923d 4518 a2be 8daa 64be 4a73 7fbe
00000120: e262 b93d e0ba 3bbe 863b d6be 66c2 2bbe
00000130: 1ae0 11be 13c9 18bc 60f2 8ebe e6a5 d6be
00000140: f430 14bf 1088 6bbe c53d 27bd 105c b33d
00000150: 7ca9 30be e3f9 9bbd 67cf 81be acdb 713c
00000160: d8e2 59be 0e1c c8be a61c 1d3d c748 84bd
00000170: 5a34 8a3d f59b abbe 867b 0e3b 2e45 89be
00000180: 7f84 8abe 9c88 f7bc 49b6 943d 5b79 67be
00000190: a799 053e c6a5 f13d dbb9 043c f386 7b3d
000001a0: 6279 42be dcb4 853c faa8 8b3c 8a54 14be
000001b0: ddc6 84be cded 203d c82a 3e3e d6bc 86be
000001c0: c455 c9bb 9a02 3b3e 4f20 9e3d 2d99 dbbd
000001d0: e2e8 943c 2bc4 d43d 9806 78be 1dc2 5c3e
000001e0: 148d 24be 4f93 22be de71 c8bd f297 b0be
000001f0: b304 c4be 0b3b 95be b740 05be 5d6e 3fbe
00000200: 4ab8 cdbe 25e9 87be 65ee 1e3d 1b2e ed3e
00000210: 6dd9 8fbe f072 813d 38f5 a53d 2c86 323e
00000220: c274 f6bd 4628 273d d62b e2be 42bf 2c3e
00000230: a70c 85bc a5d0 a8be 46ba 5d3d 9b4b 0b3e
00000240: 59b6 86bd 0465 aabe de71 8bbe cf70 bbbe
00000250: 7194 aabe 0295 2dbc a188 08bd 0089 92be
00000260: 37f9 67be 5b84 96be 2788 cb3b 1729 3d3e
00000270: fd1e b9be 9c0f 87bc c735 8bbe 358b a8be
00000280: ad7d 433d aa18 e6be 84af f4bc f168 f4bd
00000290: 1452 84be 1db7 c8bd 4f3d 81be a352 c43c
000002a0: 3b81 54be 4306 edbc 7cc6 aebe 5e28 073d
000002b0: 6b78 a3bd 30d3 13bf cbd8 97be c240 0ebd
000002c0: d12b 823e 7676 2bbe f9af 43be b045 74be
000002d0: 842c 65be 0c76 ee3c 779f 493b 4c63 46be
000002e0: 545c 7fbe 32be a2be 3c81 a2be 7348 59be
000002f0: 5dc0 6abe b8eb dbbe 3070 e5bd aa1b 9dbe
00000300: c301 3fbe bc9b a1be b5eb c1be 7f07 88be
00000310: a9b6 8dbe f7d4 a5be 2e39 86bd 1520 0a3e
00000320: 544c 93bd 007c d2bc 83c1 53bd de70 273d
00000330: 2731 e23c 78ea 28be 5121 ed3c d1c2 91be
00000340: 27a9 d1be 4364 a3be 10d2 48bd 6a23 ee3d
00000350: 1138 a0be 340b e4bb 3e80 55be 6b6c 0abe
00000360: 721c 503d 8a9b a6be cc53 83be db9b 71be
00000370: f353 29bd 27a5 77be a9f6 64be 1c20 88be
00000380: 261b fabd 5e82 2ebe 7aa6 b7be 4fbe 113e
00000390: fd5f 27be 0fe6 a63e 1c94 a7be 35c7 edbe
000003a0: e19b e8be 6c28 a2bb 49f6 96be 0962 2bbd
000003b0: 9ffc c8be 4f1a 28be 26a0 673d 682b 50be
000003c0: 9195 60bc 047a 20be ac47 8a3d bb06 aabe
000003d0: 054d 873e bf2e a4bd 7df3 29be 9286 8abc
000003e0: d512 b4be 7eac ef3c 0e86 943e 51a6 7d3e
000003f0: f1cc 02be 2fd3 dd3c 8448 9bbe 1d79 9dbd
-0.019856049 -0.28478426 -0.2470505 0.06349973 -0.40617839 0.12919459 -0.1070162 0.28114498
-0.19380705 -0.22284591 -0.39690843 -0.0976927 -0.012007729 -0.13177021 -0.18880336 -0.30111632
0.046556015 0.0041926866 0.14658113 -0.16941579 -0.2562375 -0.28321528 -0.3246741 -0.23608142
0.059232306 -0.25931707 0.25408757 -0.4075634 0.24420658 -0.21798891 -0.1080133 0.096968725
-0.3076712 -0.09151386 -0.22152995 -0.32624823 -0.105831966 -0.29711124 -0.06688709 0.2979732
0.02733624 0.16132806 -0.2032719 -0.48617023 -0.026618686 -0.3695633 -0.3878264 -0.12114434
0.27480707 -0.14574617 -0.044423137 -0.35562545 -0.19321907 0.5100115 -0.0006924903 -0.4095384
-0.4264115 0.016809361 0.022314942 -0.15788624 -0.0046770195 0.05051478 -0.09792027 -0.25688025
-0.06658568 0.10472433 -0.486211 -0.10824661 0.07159659 -0.3165914 -0.22330685 -0.24946323
0.090520635 -0.18333006 -0.41842288 -0.16773376 -0.14245644 -0.009325284 -0.27919292 -0.41923445
-0.57887197 -0.23001122 -0.040830392 0.08757794 -0.17252153 -0.076160215 -0.25353548 0.0147618465
-0.2127794 -0.39083904 0.0383574 -0.06459194 0.067482665 -0.33517423 0.0021741106 -0.26810592
-0.27054211 -0.030216508 0.07261331 -0.22604887 0.13046895 0.11799197 0.008100952 0.061407994
-0.18991616 0.016321592 0.017048348 -0.14485374 -0.2593297 0.039289284 0.18571007 -0.26315945
-0.0061442573 0.18262711 0.07721006 -0.10722575 0.018177453 0.103889786 -0.24221265 0.21558423
-0.16069442 -0.15876506 -0.097873434 -0.34490925 -0.38284835 -0.2914661 -0.13012968 -0.18694444
-0.40179664 -0.26545063 0.03880157 0.46324238 -0.2809557 0.06320751 0.081034124 0.17433995
-0.120339885 0.040809892 -0.4417407 0.16869834 -0.016241385 -0.32971683 0.054132722 0.1360306
-0.06577749 -0.33280194 -0.2723531 -0.36609504 -0.33316377 -0.010594608 -0.033333424 -0.28620148
-0.22653662 -0.29397854 0.006211299 0.18472706 -0.36156455 -0.016486935 -0.27189466 -0.32918707
0.047727276 -0.44940692 -0.029868849 -0.119340785 -0.2584387 -0.09800551 -0.25242087 0.023965186
-0.20752423 -0.02893365 -0.34135807 0.03299748 -0.07981952 -0.5774412 -0.29657587 -0.034729727
0.25424054 -0.16744408 -0.19110097 -0.23854709 -0.22380263 0.029109024 0.0030765214 -0.19373816
-0.24937564 -0.31785733 -0.31739223 -0.21219043 -0.22924943 -0.42953277 -0.11203039 -0.30685169
-0.18653016 -0.31564128 -0.37875143 -0.2656822 -0.2767842 -0.32389042 -0.06553875 0.13488801
-0.07192293 -0.025693893 -0.05169822 0.040879123 0.027611328 -0.16495693 0.02894655 -0.28468946
-0.40949365 -0.3191243 -0.049028456 0.116278484 -0.31292775 -0.0069593433 -0.20849702 -0.1351792
0.050808378 -0.32540542 -0.2564987 -0.2359461 -0.041339826 -0.24184094 -0.22359718 -0.26586998
-0.122122094 -0.17041919 -0.358692 0.14232753 -0.1634521 0.32597396 -0.32730186 -0.46441045
-0.45431426 -0.0049486663 -0.29484776 -0.04184154 -0.39255235 -0.16416286 0.056549214 -0.20329058
-0.013707534 -0.15671545 0.067519516 -0.3320826 0.2642595 -0.080167286 -0.1659679 -0.016909871
-0.35170618 0.029257055 0.29008526 0.24770476 -0.12773491 0.02707824 -0.30328763 -0.07689116

deeptabular.0.encoder.mlp.dense_layer_1.0.weight f4 [128, 256]
00000000: 33cf 893d 2752 2bbd d2bf 2a3e 7142 d1bc
00000010: 3a22 0e3e 6080 9b3e 1503 533e 5f83 5fbe
00000020: 323d ffbb c48b 473e 9155 7d3e 9f59 5a3e
00000030: 3c30 413d bb21 e93e c20a 47be de6b 7b3e
00000040: 6fdb c73e 3b1f 203f dc2d 083e e9f7 843e
00000050: 9072 193e 4de5 65be b7da 4f3e 4619 b63e
00000060: e94a 13be c49a d1bd 739b 9cbb 3234 893d
00000070: 4ad9 9dbd b86a 7b3e 7484 28be 0216 9ebd
00000080: c766 0f3d 263b de3d 2700 bb3e e2a2 f43e
00000090: f898 da3e da10 cdbd a9ae 073e 1038 703d
000000a0: 4b26 27be cee4 bb3d 209c 1b3e 4405 5d3d
000000b0: 578f 3b3d 99d1 9a3e 08e1 163f b3f9 923d
000000c0: be08 063e ee80 2c3e 32b5 343d 07a4 103e
000000d0: 580f 853e a483 303d c346 c9be db17 ff3e
000000e0: 0cdf 9c3d 9ffb 80be 9b67 afbd 621a 0b3f
000000f0: b678 98be 2470 82bd 392c 6a3c 3e72 8b3d
00000100: e51e 86bd 6f15 863e cde4 d83e 2d28 d33d
00000110: e06a 6ebc 3fb5 4cbe c733 9a3e b38a d13e
00000120: e2b0 d63e 011f d6bd 9f19 d13e f671 f63e
00000130: 6085 ff3e 56ee ef3d a049 9c3c cbbb a23e
00000140: 5545 b3bc 2b45 d43e e232 863e fbea f53b
00000150: 6e52 003f 58a2 d03e ac78 733e 36d2 1dbd
00000160: bb6b b63e 6398 c43e 284a 9f3c 62d4 0abd
00000170: 887f ce3e 41c2 d03d 434c 523f 959a 323d
00000180: 6c1b 923c 0c48 103e 87b6 603e 7395 773d
00000190: 9419 76be f309 863c cfdc 1b3e 33f5 233e
000001a0: 5c01 593e dc90 bb3e 1b2b 043d bfd1 ba3d
000001b0: e3d9 b13e 1f47 2abd ea37 a03e bbf6 ba3d
000001c0: adbf 353c 3128 f4bb df3b 013f e3c6 823e
000001d0: 17cf 303d af83 023f 1d00 00bc 3645 0cbd
000001e0: 5a74 4e3f f8a3 d53d 6bf6 203c bfe8 9cbd
000001f0: b048 d93e ba34 bbbd 90cb fe3d 80e9 61bd
00000200: 439a 053f d95b 593d 8dfc 32be 7e55 a0bd
00000210: 9981 233d 8c33 9d3e 73dc 923d b335 03be
00000220: 529a 10bd 2299 f43e ea6f 57bd bcd5 9dbe
00000230: 516e 43be 2c23 603e 5846 0cbf 16cc 863e
00000240: 6bc4 9b3e e8d6 a83e 2ddd 7abd d31c 613e
00000250: b337 b53d 4d5f 003e 887a 293e a10f 37bd
00000260: 3c7d 143e c7ec 393d 4ff1 3e3e 197b 853e
00000270: f030 7fbd 8e64 bf3e 5ec8 a93d c0e3 fb3d
00000280: 0a14 003f 0b6c 633d 1996 cbbe 632b f03e
00000290: ef9f 753e 5b0f d93e 692f 30be 4e0f ee3e
000002a0: 1ec0 06be 7890 42bc 4fcd a5be 5667 ccbd
000002b0: fd8e d13e 4a0b f33e 794c ff3d 114c d33e
000002c0: 3508 9b3e fee9 cebc e29d f13e eba6 ac3e
000002d0: c5c5 043f 0660 a83e 07c7 77be f4f7 fc3e
000002e0: c954 f03e 7f86 b23e ac26 2e3d e45b 35bd
000002f0: 02a2 d23d 177f a43d 175b 823e 4caa fb3c
00000300: 56b4 823d acd2 94be 75a2 d3bd 878e ccbc
00000310: b67c b43e d21a cfbd e738 223e 3661 c0bd
00000320: 1b2d 08bd bfbf 5bbd 3b50 4b3e fb37 5d3e
00000330: 9845 7e3e 168a 503d 3a5e 15be 530e 863e
00000340: 8c3f 243d 3ef5 193e 5805 dd3e 653c 9ebe
00000350: 2036 43bc 492c 0a3f 3e23 493e fc7e 37be
00000360: 0b21 ca3e 27c4 b23e 4b0e 11be 4bf9 f43d
00000370: 4d9c 473d 50af fa3d dd9e 183e 5daf be3b
00000380: af91 593e e102 e53c 8c2c 003e c656 e43e
00000390: 879f 19be 055d 04bf 1b91 693e f7c4 3abd
000003a0: 31e0 b03d 74b2 fdbd 2685 973e b12d 043f
000003b0: db4c 813e fcff 283d 7be7 e03e 0a8c b83e
000003c0: 871a 583e 3fda 5f3e e50e 08be b870 3f3c
000003d0: 4255 68be 3456 2dbe b615 8c3d 4f53 8d3e
000003e0: 4984 443e da2e 7bba c721 e9bd 5928 b93e
000003f0: 30b0 2ebe 5b17 e43d 5eb1 bd3e 5786 633e
0.06728973 -0.041826393 0.16674736 -0.025544377 0.13880244 0.3037138 0.20606644 -0.21827458
-0.0077892775 0.1948691 0.24739672 0.2132325 0.04716514 0.45533547 -0.19437698 0.24552867
0.39034602 0.62547654 0.13298744 0.2597039 0.14985108 -0.22450753 0.20298277 0.35566157
-0.14384045 -0.10234597 -0.004779273 0.066994086 -0.0770746 0.24552429 -0.16456777 -0.077190414
0.035010125 0.108511254 0.36523554 0.4778052 0.4269483 -0.1001298 0.13250221 0.058647215
-0.16323201 0.091745004 0.15196276 0.0539601 0.045790996 0.30238035 0.5893712 0.071765326
0.13089272 0.16846058 0.044118114 0.14125071 0.2598827 0.043094292 -0.393118 0.49822888
0.0765973 -0.25191972 -0.08564683 0.5433713 -0.29779595 -0.063690454 0.01429277 0.06808899
-0.065488614 0.26188228 0.4236206 0.10310397 -0.014551848 -0.19991015 0.30117628 0.40926132
0.41931826 -0.10455132 0.4083986 0.4813382 0.49906445 0.11715381 0.019078076 0.317839
-0.021883646 0.4145902 0.26210696 0.0075048185 0.5012578 0.40748858 0.23776501 -0.03853055
0.35629067 0.38397512 0.01944454 -0.03389395 0.40331674 0.10193301 0.82147616 0.043604452
0.017835341 0.14089984 0.21944629 0.06044526 -0.24033195 0.016362166 0.1522095 0.16011505
0.21191925 0.36633956 0.03226767 0.09122037 0.34736547 -0.041571733 0.3129266 0.09129091
0.011093062 -0.0074510803 0.5048198 0.25542364 0.043166246 0.50982183 -0.007812527 -0.034245692
0.8064629 0.10431665 0.009824376 -0.0766158 0.4243827 -0.09140916 0.1244117 -0.055154324
0.5218851 0.05306611 -0.17479153 -0.07828806 0.039918516 0.3070339 0.071709536 -0.12813453
-0.03530342 0.4777308 -0.052596964 -0.3082713 -0.19085051 0.21888417 -0.54794836 0.2632758
0.30423293 0.3297646 -0.061246086 0.21983652 0.088485144 0.12536354 0.16550648 -0.04469264
0.14500898 0.045391824 0.1864674 0.2607048 -0.06230253 0.37381405 0.0829017 0.12299299
0.5003058 0.05552296 -0.39762953 0.469081 0.23986791 0.42394528 -0.17205586 0.46496052
-0.13159224 -0.011875264 -0.323832 -0.09980647 0.40929404 0.4746955 0.12465758 0.41268972
0.302797 -0.02525806 0.47190768 0.33721098 0.5186427 0.3288576 -0.24197017 0.49407923
0.46939686 0.34868237 0.04251735 -0.044277087 0.10284807 0.08032053 0.2546012 0.030720852
0.063820526 -0.2906698 -0.103337206 -0.024970306 0.35251397 -0.101125374 0.15842019 -0.093935415
-0.03324614 -0.05364966 0.19854824 0.21603386 0.24831235 0.05091294 -0.14586726 0.26182804
0.040099666 0.15034959 0.4316814 -0.30905452 -0.01191476 0.53973824 0.1964235 -0.17919534
0.39478335 0.34915277 -0.14165609 0.11961611 0.048733044 0.122404695 0.14904352 0.005819245
0.2124698 0.027955474 0.12516993 0.44597453 -0.15002261 -0.51704437 0.2280926 -0.045597997
0.08636511 -0.12387553 0.29593772 0.5163222 0.2525395 0.04125975 0.43926606 0.3604434
0.2110387 0.21860598 -0.13286932 0.011684589 -0.22688773 -0.16927415 0.068400785 0.27602622
0.19191088 -0.00095818716 -0.11383396 0.36163595 -0.17059398 0.11137267 0.37049383 0.22219215

deeptabular.0.encoder.mlp.dense_layer_1.0.bias f4 [128]
00000000: 1f57 30be c4bc bcbd 0aec 3cbe 0dd4 8bbe
00000010: 6406 bcbe b469 4bbe 6079 86be b842 1bbe
00000020: fc7b 1dbe 70b4 cabd a55b 3cbe fd3c 84bd
00000030: 2b1c 04bd 3720 593e 3cfa a5bd 994e 5ebe
00000040: 39c6 88be 723e 2abe 6eb8 4c3d 0731 3bbe
00000050: 41ca c63b 07da 9abe db76 59be 7ce0 bebe
00000060: 90d1 c4be 4f8f eebd cf46 a1be faed cbbc
00000070: 9fb2 a1bd 4835 f7bd cd63 74be c922 c7be
00000080: b3ed cdbd 08e7 96be 5f71 403e 6727 c6bd
00000090: 54cc c4be 6aa9 5fbe a61c 2abd 1616 3fbe
000000a0: 7198 44be 2148 27be f6d0 acbe 8d75 dd3d
000000b0: ddcf 33be 4394 0abe 55e7 99bd 579a 21be
000000c0: 4735 893c 2246 74be d7c0 60be 67fc b1be
000000d0: d2ba 253e d0df 94bd ea6b 0dbe 762f 93bd
000000e0: 2a0b 53be f42a 2cbe 0537 3c3d 688b a4bd
000000f0: 436f 9cbd a2eb acbd c0d1 f3bd e3c4 b1bc
00000100: 0f63 56be 53d7 153e 7173 c4bd 5efd c2bd
00000110: ea78 4abe 4595 903d 65bd 23be 346b 4ebe
00000120: a1d0 eabd 2aac 82be 9a5b 6e3e 5539 11be
00000130: 07d2 babd 1e02 d7bd c2bf aabd 7c9e b1be
00000140: 395c 233d 89a5 8fbe d2da b63d 5a7b cebe
00000150: 3453 873c e8bf 38be 761a 6fbe 817f 67be
00000160: c021 a0be 7924 d1be cbc5 8abd 4e1d 90be
00000170: 336a dabe 9526 e2be 76c6 e8be 209f 0fbd
00000180: 6aa5 ffbd 2f48 afbd 7215 24be 3621 32be
00000190: d5e4 823c 1969 27be 87aa 92be 6898 febd
000001a0: f091 01be ec57 bfbe 335f 4abe ca83 6a3d
000001b0: fa9f d1be 4aed a03d fd3b 143d 7fc2 a23e
000001c0: 2dac c2be 60b4 3ebe 84ed 9ebd 6b4d e53d
000001d0: 316a 0abe 259d a9be 5d82 68bd 0eb1 5cbe
000001e0: 5e8d 65bd cc59 e4be 0880 a0be 15c7 96bd
000001f0: 5c19 18be 12d8 bfbd 6f73 0c3c 7fd1 e13c
-0.17220734 -0.09215692 -0.18449417 -0.2731022 -0.36723626 -0.19864541 -0.26264477 -0.1516217
-0.15379328 -0.09897697 -0.18394335 -0.06456945 -0.032253426 0.21203695 -0.08104369 -0.2170967
-0.26713732 -0.16625383 0.049980573 -0.18280421 0.006066591 -0.30244467 -0.21236746 -0.37280643
-0.38441133 -0.11648428 -0.31499335 -0.02489375 -0.078953974 -0.120707095 -0.23866196 -0.38893726
-0.10055103 -0.29473138 0.18793248 -0.09675484 -0.3843714 -0.2184197 -0.041531228 -0.18660769
-0.19198777 -0.16336109 -0.33753175 0.10813437 -0.17559762 -0.1353312 -0.07514826 -0.15781532
0.016749037 -0.23854879 -0.21948563 -0.3476288 0.16184548 -0.07269251 -0.13810697 -0.07186787
-0.20609728 -0.1681326 0.04595091 -0.08034402 -0.07638409 -0.08443381 -0.11905241 -0.021700328
-0.20936225 0.14632921 -0.09592331 -0.09520982 -0.19772688 0.07059721 -0.15990217 -0.20158082
-0.11465574 -0.25521976 0.2327713 -0.14182027 -0.09122091 -0.10498451 -0.08337356 -0.34691226
0.039882872 -0.2805598 0.089284554 -0.40328485 0.016519167 -0.18041956 -0.23349938 -0.22607233
-0.3127575 -0.4084814 -0.06776007 -0.28147358 -0.4265915 -0.4417006 -0.45463914 -0.035063863
-0.12482722 -0.0855869 -0.16023806 -0.17395481 0.015978256 -0.16348685 -0.28645727 -0.12431413
-0.12653327 -0.37371767 -0.19762878 0.05725459 -0.40942365 0.07857759 0.03619002 0.31789014
-0.38021985 -0.18623495 -0.07760146 0.11196407 -0.13517071 -0.33127704 -0.05676495 -0.21551916
-0.05604302 -0.4459976 -0.3134768 -0.07362191 -0.14853424 -0.09367384 0.008572443 0.027565716

deeptabular.0.encoder.mlp.dense_layer_2.0.weight f4 [64, 128]
00000000: f2dd 32bc a437 1b3d 10b2 e0be 40a4 d2bd
00000010: bbb8 353e 58c0 093e 6579 bebc 88e0 1ebd
00000020: 8ebe 063d 9338 073e 0e19 76be 48b5 b7bb
00000030: 888e 883c c740 973d 91b8 86bc 0d01 623e
00000040: b71a cd3d 1dd1 5c3e 2eaf 523c e31a 3fbd
00000050: 7188 80bd 20dd 0dbe 3e2e 423d dd9c 17bc
00000060: 5799 ac3d 75d2 3e3e 45e8 8cbe c10a 3bbe
00000070: 18a3 a6bd 333f 803b c255 b4be f272 02be
00000080: 9a7e e9ba d038 5cbd f213 913d 39cb 693e
00000090: f760 bd3c 6e09 86bd ea10 e1bd c1d0 28be
000000a0: bf7b 67bd ca46 4a3d 731c 0c3d 7be0 86bd
000000b0: ba0e acbd 5d53 4a3e d109 00bc 51dd e4bd
000000c0: 1e23 3a3c 2e95 0ebe 8a54 04be e3f9 1a3e
000000d0: 8a46 99bd 369a 283d 1082 adbe e380 d73d
000000e0: e297 153d 11f8 b6bd 34f5 2a3e d9f5 89bc
000000f0: 4ef5 ffbd 8ff6 56bd 0c95 7e3e 83a4 05be
00000100: bdeb 823e c76f d1be ea71 9a3c 97af 0bbe
00000110: 985d 14be 7065 303e 538b e8bd ca40 8e3e
00000120: 8448 3bbc 8b24 b0bd c47e 973d 283e debd
00000130: 7ab3 de3d 2380 88bd 3b24 7d3d 865b 5dbe
00000140: 7cc4 7ebc ab61 58bd 8a47 9b3e 1bc1 953e
00000150: 5619 9d3d d274 ad3d b7c7 083e fdd8 f3ba
00000160: 3089 79be 0db0 4a3d 37ca 20be 64f7 97bd
00000170: 6434 53bc bffb 6eb9 08a7 f4b9 95d4 1b3e
00000180: 8ec9 883d c302 fabb e87e 0dbe c15b d4bb
00000190: bc37 23bd 345a 90bc c007 e13e 9609 88bd
000001a0: a18f 803e 9b7e 8a3b a1a3 ca3d 7ac4 1fbe
000001b0: f770 813d c6e6 953e 1fd2 18bc 195a c1bd
000001c0: 69ab 053e dabf 3cbe c1e8 eabd ccf8 923e
000001d0: 8e78 8f3d e6f1 0fbe cbdc 8fbd 9eae 8dbe
000001e0: 17ad d43e 0e94 933e d0dd 843e 8814 72be
000001f0: 6b85 f23d 9792 fd3d 11f9 b93e 7180 d3bc
00000200: d6b9 babe e0af 4aba 9444 08be 77f7 13be
00000210: 97f0 a1bd aedf 82be eab5 98be 85eb 293c
00000220: b057 0dbe 4404 a7bd 5947 1c3e 87f2 a63c
00000230: 9142 49be b0cb 853e df58 44bb 8023 f73d
00000240: b946 02bd e14d 603e 62cf 52be 3351 65bd
00000250: 7060 1f3e ad74 b8bd 0dea 13be de00 913e
00000260: d510 a9be 2160 dabd e364 053e 6cb4 6bbd
00000270: c80a 9f3d 3cdc 3cbd c27a 38be 899d a7bd
00000280: bf0c 8f3e 9eda 1d3e c98b 73be f7c8 3bbe
00000290: 9552 64be 2409 393d 96e6 9abd 9697 31bd
000002a0: ad51 a8bc 3fb5 b3bd 69d2 363e 7464 c13e
000002b0: 76fb 143c 840d 303e d8da 83bd dc77 493d
000002c0: fb4f f93d 3159 03be e6d0 633e d9f4 b03d
000002d0: 6ccb e6be 1e5e b53c 78e8 31be 2934 11be
000002e0: 527f b1bd 6833 b43e 801c 49be f462 b13d
000002f0: 429a d13c b3ed 713c 410e 87be 9759 413d
00000300: c9c4 293c c323 8abe cbfd 9bbd 9dc4 bebc
00000310: 8414 5cbe e84c 5ebe 1ed7 c13e 06a2 3e3d
00000320: 2b44 17be f2f3 cfbd 78ff 74be 9676 c73d
00000330: 9d63 75bd b61f 4c3c d465 8dbd 930c b0be
00000340: 6f7d 73be b3eb c23c b46c 5ebe de62 91be
00000350: 5c5b c03d 42eb 79be 6e69 8dbe f537 02be
00000360: 18ab 133d 75f9 5f3d 76c5 023e 2c69 92be
00000370: 348d 153c d56c 0f3e 603a 5cbe b1f5 03be
00000380: 0b1a 50be 1f2f 3c3d b130 66bc cc9e 1fbc
00000390: 24c4 bdbc 9395 293d e0b6 053d 640b 01be
000003a0: 45d9 b2be f152 debd 4950 65bd 7231 4c3d
000003b0: d4e0 20be cda2 79be be45 27bd 64cb 2ebe
000003c0: 30f2 a0be 6c57 2abe 5931 cebd 3ab3 dcbd
000003d0: 6132 87bd 97e0 3bbd bb8a 553d 14f0 88bd
000003e0: 14a6 0c3e 52a4 b1bc f4aa 593e ce36 85bd
000003f0: 2681 aa3a 1d47 3ebe 4776 04be 8c4f 27bd
-0.010917174 0.03789486 -0.4388585 -0.102852345 0.1774625 0.1345228 -0.023251245 -0.03878835
0.03289657 0.13205175 -0.24032995 -0.005606327 0.016669527 0.07385402 -0.01644543 0.22070713
0.10014861 0.21564145 0.012859149 -0.0466565 -0.06276024 -0.13853884 0.04740738 -0.009253708
0.08427685 0.1863497 -0.27520958 -0.18265821 -0.081365764 0.003913784 -0.35221678 -0.1273916
-0.001781422 -0.053765118 0.070838824 0.2283143 0.023117526 -0.06544767 -0.10989554 -0.16485883
-0.056514498 0.049383916 0.03420682 -0.06585785 -0.08401246 0.19758363 -0.00781484 -0.11175025
0.011360912 -0.13924095 -0.12922874 0.15134387 -0.074841574 0.041162692 -0.33888292 0.1052263
0.0365218 -0.08934034 0.166951 -0.016840862 -0.1249796 -0.05248123 0.24861544 -0.13051037
0.2557048 -0.40905592 0.018853147 -0.13641201 -0.14488828 0.17226195 -0.11354699 0.27783805
-0.011430863 -0.0860072 0.073972255 -0.10851699 0.10874076 -0.06665065 0.06180213 -0.21616945
-0.015549775 -0.05282752 0.30328017 0.2924889 0.07670848 0.08469547 0.13357435 -0.0018604096
-0.24368739 0.0494843 -0.15702139 -0.07420233 -0.012890909 -0.00022791231 -0.00046663755 0.15217812
0.066790685 -0.0076297238 -0.13817942 -0.0064806645 -0.039848074 -0.017621137 0.43951225 -0.06642453
0.2510958 0.0042265183 0.09894491 -0.15602294 0.063203745 0.2927763 -0.0093274405 -0.09441013
0.13053669 -0.1843256 -0.114701755 0.28705442 0.07005416 -0.1405712 -0.07024535 -0.27672285
0.41538307 0.28823894 0.2595048 -0.23640645 0.11841854 0.123814754 0.36322835 -0.025818082
-0.36469907 -0.0007731896 -0.1330741 -0.14449869 -0.07907217 -0.2556128 -0.2982629 0.010371094
-0.13802981 -0.081551105 0.15261592 0.020379318 -0.196543 0.26131964 -0.0029960198 0.12067318
-0.031805728 0.21904708 -0.20586923 -0.05598564 0.15564132 -0.09006629 -0.14444752 0.28320974
-0.33020654 -0.106628664 0.13026766 -0.05754511 0.07765728 -0.04610847 -0.18015578 -0.08184344
0.27939412 0.15415427 -0.23783793 -0.18338381 -0.22297128 0.045174733 -0.07563512 -0.043357454
-0.020546759 -0.08774804 0.17853703 0.37771952 0.009093156 0.17192656 -0.064382255 0.049186572
0.12173458 -0.12826993 0.22247657 0.08640451 -0.45077074 0.022139605 -0.17373836 -0.14180054
-0.086668625 0.3519547 -0.19639778 0.08661452 0.025586251 0.014766145 -0.26378062 0.04720458
0.010361859 -0.2698041 -0.076167665 -0.023287112 -0.21492201 -0.21709025 0.37859434 0.046541236
-0.14772098 -0.10153951 -0.23925579 0.09739415 -0.05990945 0.012458732 -0.06904188 -0.34384593
-0.23778318 0.02379403 -0.21721154 -0.28395742 0.093924254 -0.2440615 -0.276195 -0.12716658
0.03605184 0.05468126 0.12770638 -0.28595865 0.009127904 0.1400636 -0.21506643 -0.12886693
-0.20322435 0.045943376 -0.014049695 -0.00974245 -0.023164816 0.04140241 0.032645106 -0.12602001
-0.34931388 -0.108556636 -0.05598477 0.049851842 -0.15710765 -0.2437851 -0.040837996 -0.17069775
-0.31434774 -0.16634911 -0.10068006 -0.10776372 -0.06601406 -0.045868482 0.052134257 -0.06686416
0.13735229 -0.0216848 0.2125662 -0.06504594 0.001300846 -0.18581815 -0.12935744 -0.040847346

deeptabular.0.encoder.mlp.dense_layer_2.0.bias f4 [64]
00000000: 8d0e 32bd 5431 eebd 81bc 36bd 8e78 583e
00000010: 9aea 0e3d 50ad b0be 70d1 51be 79b0 a0bd
00000020: 6e8f e5be 9ffa 32be 07c6 1fbe e888 463e
00000030: 3928 98be 8518 903d 6bff 90bd 6e78 4bbf
00000040: a37b 48be 2ccf bd3d 0aa7 f3bc 0460 02bf
00000050: e386 f1bd e788 c83d c475 33bf ee30 61bd
00000060: 3d1e 63be d38b e9bd 5c41 b1be 8c63 e9be
00000070: 0978 90bd 6360 56be 2834 d6be cbd9 5dbe
00000080: 2842 8f3e 8918 0ebe a4fe 2abf d3ad 13bf
00000090: 81ee 81bd c19b 873e 57fc 373e b4f8 0ebe
000000a0: f50d 08be a2e2 16be 0697 5fbe 4b77 9bbe
000000b0: 41e4 6d3e 6f76 22bf 666b 84bd 05a2 32bf
000000c0: 5a59 9ebe d89e 58be eb8d 2dbe e715 1abf
000000d0: 07d2 f1be feec 16bf 22fa a5be 82c5 0e3f
000000e0: 84f2 88be 1f75 ff3d 2de8 843e 7bbd 67be
000000f0: a742 efbe 54e4 1dbf d7c7 a2be 5e90 02be
-0.043470908 -0.11630502 -0.044613365 0.21139738 0.034891702 -0.34507227 -0.2049005 -0.078461595
-0.4483599 -0.17478417 -0.15602885 0.19388163 -0.29718187 0.07035927 -0.07079967 -0.79480636
-0.19578414 0.092680305 -0.029742736 -0.5092776 -0.11793306 0.09791737 -0.7010157 -0.054978304
-0.22179504 -0.114036225 -0.34620178 -0.4558376 -0.07054145 -0.20935206 -0.41836667 -0.21665113
0.2798016 -0.13876547 -0.667948 -0.5768711 -0.06344319 0.26486018 0.17967354 -0.1396206
-0.13286574 -0.14734891 -0.21834955 -0.3036445 0.23231603 -0.63461965 -0.06465797 -0.6977847
-0.30927545 -0.21154344 -0.16948669 -0.6018967 -0.4723055 -0.5895537 -0.324174 0.55770123
-0.26747525 0.12473511 0.25958386 -0.22630875 -0.4673054 -0.61676526 -0.3179309 -0.12750384

deeptabular.0.encoder.mlp.dense_layer_3.0.weight f4 [32, 64]
00000000: 98f2 e93c 7004 7a3d a3b5 02be f1db 0bbe
00000010: b739 ac3d d9b9 db3d ea67 4bbd 374f 883d
00000020: ab85 9a3d c3a4 31bc f234 b73d 955b 9fbd
00000030: 6368 c5be e4d4 2f3e 04be e23d 65d9 80be
00000040: 3d30 6fbe d5ac 84be c3d7 03be 8e11 933e
00000050: cd01 403e ecde 95bc ade8 863e dd6f ba3c
00000060: 6249 33be f3d2 91bd 38fa 2dbe 83eb bbbe
00000070: 06cf 31be ce05 1b3e 5f10 bebd 1f73 af3d
00000080: bf47 f03b 1446 cd3c f69f afbd 64ed 13be
00000090: 72e3 cebe a8cb 2c3d cdbe 493e 7700 733d
000000a0: e80f 8ebe dbb4 d0be 0881 573e 5e18 95bd
000000b0: 368c 30be 96aa e9bd 322a ca3d 6ff7 383e
000000c0: 968c 92be 851b b6be 6434 123c 97c8 9ebc
000000d0: 38ee 90be ed08 bbbd 274f a5bc 9913 1ebe
000000e0: 2e6c 99be 305f aabd 4bfa 353e f8d1 b0be
000000f0: c54b bcbc 82ae 183c be7d 5c3e e142 9ebe
00000100: a5d4 82be 0dfd 04be d478 25be f202 f7be
00000110: c22b ecbd dc29 79bd 9141 35bd 3b06 8fbd
00000120: 1773 86bd fcc3 7bbe fd78 0cbe e02f b3be
00000130: a1e8 123d c34b 96bd fa62 a2be d3fe 5bbd
00000140: 8678 19bc b806 a8be 6610 d4bd 1179 dcbe
00000150: 872e 07bd 6837 77bd d8a7 33be b9b7 413d
00000160: 52f3 83bd 80c1 cabc f0e4 3fbe 4f3f 2c3e
00000170: 7bcf 12bd 5280 283d 5973 70be f769 08be
00000180: ff34 b03d 0e4f 7dbe 2d6a 05bc 9bad 86bc
00000190: 99e3 073b 327c c23d 5c42 8dbe 861c 66be
000001a0: 3422 063e e77f 0c3d 2da7 8abe 0b15 0b3c
000001b0: 5f12 963d f602 80bd d7ee 133c 004b fbbd
000001c0: 7e8c 17be f9c3 063e 1742 513d ee91 e1bc
000001d0: ac49 d53e 7fc8 b7bd a45d cebd 2723 b7be
000001e0: ff15 103e ff44 893d cccd 873d 4a46 fe3c
000001f0: 92f6 1ebe 83fd 73be 239a 133d 3a26 19be
00000200: 8099 18bb 49e1 0f3e fe55 4b3e 3e08 133d
00000210: a772 63be da74 0dbd ebef a1bc ef29 8fbb
00000220: ff27 263c 33d7 8b3c 0fb3 9fbd fcc4 7cbe
00000230: 26fa a3be 7212 7a3e 7b94 4f3d 9fb9 42be
00000240: 27d4 8ebc 079e 81be c88d e9bc bc87 0bbe
00000250: 4f20 813d aba7 54be 0a1f bdbe fb3d 12be
00000260: a0dc 02be c3ca 5abe a8d8 04be 34b7 34be
00000270: e9db ed3d 4df9 af3c ab1d 14be eeee ee3d
00000280: 4e48 83bd 0234 f6bd 5f1a 39be f325 9bbb
00000290: 4c3b ac3d 07b1 603e ee3e 1b3d 0bd5 fbbd
000002a0: 33eb 12be 9563 54be 104f 95be 6080 bbbd
000002b0: 2839 933e 5ef9 f93c 9001 5a3d 77f3 cfbe
000002c0: e3bf 0f3d 2486 273e 6689 89be 289f 2cbe
000002d0: 7a11 4abc 9f9b 10be 7d4f e8bd 162c f33c
000002e0: b9c1 4b3e 3f57 3ebe bcb7 f13b 77d6 823e
000002f0: 5aac 23be be01 78be 0b3f e73d 1898 843d
00000300: 8394 90bd 773b 02bd c688 3cbd 92cf 8bbe
00000310: 18c0 303d e383 113e 4f56 fbbc 5387 62be
00000320: c9d6 6d3d cbe1 a5be a2f4 02bd a344 b5bc
00000330: 113e c7bd e5ea 813b 1ed1 8dbe feb7 14bf
00000340: 3780 0d3d 3dd7 1dbf 8d38 4fbe 5216 dcbd
00000350: 405a 89bd ed26 613d e74e 3a3d 74ee 803b
00000360: b8e0 69ba 0c69 a63d 2dcd 9bbe ba11 013d
00000370: 0ec3 42be 2982 47be 0f8c 83bb 4f0c a8be
00000380: e53c 403d 6633 debd c831 1abc 4db9 c7bd
00000390: 6995 9bbe 31f7 e73d ad87 333e 71b2 9cbd
000003a0: 7185 ea3d 98f9 2f3e f05f 5abe bb2e 89bd
000003b0: a358 bdbd 5c20 543e 90da 353d 8dd9 61be
000003c0: 7cf2 93be 04b5 8fbe b1d7 e03d 980b c3bd
000003d0: d8a5 503e 9c66 9f3c 177a 8cbe 7e0e 60be
000003e0: bf5f d9bc 73eb a2bd 0282 5ebc 94f0 adbe
000003f0: 1089 6fbe 877f 51bd 9e0f 93be 45e5 213d
0.02855806 0.06103939 -0.12764601 -0.1365812 0.08409446 0.10728807 -0.049659647 0.06655734
0.075450264 -0.010842505 0.089456454 -0.0778114 -0.38556203 0.17171055 0.11071399 -0.2516586
-0.23358245 -0.2591311 -0.12875275 0.2872433 0.18750687 -0.018294774 0.26349393 0.022758419
-0.17508462 -0.071203135 -0.16989982 -0.3670312 -0.1736413 0.15138933 -0.09280466 0.085668795
0.0073327716 0.02505783 -0.08575432 -0.14446026 -0.40407902 0.04218641 0.19701691 0.059326615
-0.2774651 -0.40762982 0.21045315 -0.07280038 -0.17240986 -0.1140949 0.09871329 0.18063138
-0.28622884 -0.3556787 0.008923624 -0.019382758 -0.28306746 -0.09132562 -0.020179344 -0.15437163
-0.29965347 -0.08318937 0.1777126 -0.34535193 -0.022985348 0.00931895 0.21532342 -0.309104
-0.2555286 -0.12987156 -0.16159374 -0.48244435 -0.11531784 -0.060830936 -0.044251982 -0.0698361
-0.065649204 -0.24586481 -0.13718028 -0.34997463 0.035866383 -0.07338669 -0.31716138 -0.053709816
-0.009367114 -0.32817626 -0.1035469 -0.43061116 -0.033003356 -0.060355574 -0.17544496 0.047294352
-0.06442894 -0.024750471 -0.18739676 0.16821025 -0.0358424 0.041138 -0.23481502 -0.13321672
0.08603858 -0.24737188 -0.00814299 -0.016440203 0.0020735024 0.094963446 -0.2758969 -0.22471818
0.13098985 0.034301665 -0.2708067 0.008488904 0.07327723 -0.06250565 0.009029112 -0.122701645
-0.14799687 0.13160695 0.05108842 -0.027535405 0.4165777 -0.089737885 -0.10076454 -0.35769007
0.14070891 0.06702613 0.066310495 0.031039376 -0.15523747 -0.23827176 0.036035668 -0.14955989
-0.0023284853 0.14050783 0.19857022 0.035896532 -0.22211705 -0.034535266 -0.019767722 -0.0043690125
0.010141372 0.017070388 -0.077978246 -0.24684519 -0.32026786 0.24421099 0.05067871 -0.19016121
-0.017435146 -0.25315878 -0.02850999 -0.13625997 0.063049905 -0.20767085 -0.36937743 -0.14281456
-0.12779474 -0.2136641 -0.12973273 -0.17648011 0.1161421 0.02148118 -0.14464442 0.11666666
-0.064102754 -0.120216385 -0.18076466 -0.0047347485 0.084097475 0.2194253 0.03790181 -0.12296494
-0.14347534 -0.20741113 -0.29161882 -0.09155345 0.28754544 0.030514415 0.053224146 -0.40615436
0.035095107 0.16359764 -0.2686264 -0.16857588 -0.012333268 -0.14121865 -0.11343286 0.029684108
0.19898118 -0.18587969 0.007376639 0.2555425 -0.15983716 -0.24219415 0.11291321 0.06474322
-0.07059576 -0.03179499 -0.046028875 -0.273068 0.043151945 0.14210467 -0.030680804 -0.22121935
0.058066163 -0.3239883 -0.03197158 -0.022127455 -0.09728635 0.003964769 -0.27698606 -0.5809325
0.034546103 -0.6165655 -0.20236416 -0.10746445 -0.06706667 0.054968763 0.045485403 0.003934676
-0.00089217303 0.08125505 -0.30429974 0.031511046 -0.1901972 -0.19483246 -0.004014499 -0.3282189
0.046933074 -0.10849647 -0.009411283 -0.0975214 -0.30387428 0.11326445 0.17532225 -0.076512225
0.11451233 0.17185056 -0.2132566 -0.06698366 -0.09245422 0.20715469 0.04439789 -0.22055645
-0.28895938 -0.2806779 0.1097864 -0.09523696 0.20375764 0.019458108 -0.27436897 -0.21880528
-0.026534913 -0.079550646 -0.013580801 -0.3397261 -0.23392129 -0.05114701 -0.28722852 0.03952529

deeptabular.0.encoder.mlp.dense_layer_3.0.bias f4 [32]
00000000: 5880 623f 7ac1 58be 58fc f03d 119c d53d
00000010: 5663 093f 367a 98be 7341 5d3c 5334 0bbe
00000020: 6461 16bd 7623 673c c88e ac3e f02f e93e
00000030: 7862 2cbd 24c9 da3e bf71 bdbe b908 acbe
00000040: 2876 acbe a525 cfbe 41aa b53e 45d2 2dbe
00000050: d8a5 553c 9992 a9bc fa52 6e3f cb00 6ebe
00000060: 3dc3 ed3e dffa 03be 1b80 1b3f 15a5 9f3e
00000070: cd66 9cbe 1feb ecbe d048 80be 7075 88be
0.8847709 -0.21167555 0.11766881 0.10430158 0.536672 -0.2978074 0.013504374 -0.13594179
-0.036713973 0.014107576 0.33702683 0.45544386 -0.042086095 0.42731583 -0.37000844 -0.33600405
-0.33683896 -0.40458408 0.35481456 -0.16974743 0.0130400285 -0.020699786 0.9309536 -0.2324249
0.46438017 -0.12888668 0.6074235 0.31180635 -0.3054718 -0.46273133 -0.25055552 -0.26652098

deeptabular.1.weight f4 [1, 32]
00000000: 40cd d0bb 54c4 023d b997 7f3c dbb8 913c
00000010: dba3 65bb 6240 b03c d97f 1bbd 9aa5 a33c
00000020: 781f 863b cb8c 9a3c e071 023e 1447 983c
00000030: 81ef b93c 7010 2c3d fca2 f1bb 8244 383d
00000040: 7aa4 bcbb 2471 773c f757 fb3c ef32 4dbc
00000050: c0c4 053c 90ad 243d a3fd 223d 9cfd f7bc
00000060: c718 003d e540 313d 9ca9 023c 5246 f0ba
00000070: 75e7 6bbc 6b88 af3b 1f87 2e3d 9e26 383c
-0.006372124 0.031925514 0.015600138 0.017788341 -0.0035040292 0.021515075 -0.037963722 0.019976426
0.004093107 0.018865963 0.12738752 0.01858858 0.022697212 0.042007864 -0.0073741656 0.04498721
-0.005756912 0.015102658 0.030681593 -0.012524351 0.008164585 0.040204585 0.039792668 -0.030272298
0.03127363 0.04327478 0.007975008 -0.0018331504 -0.014398445 0.0053568385 0.04260933 0.011239676
