models/deep_learning/deepwide_model.pt (torch, 644194 bytes, 10 tensors)

wide.wide_linear.weight f4 [60818, 1]
000000 38 22 f3 3e 8d 90 50 bf fe 71 98 bd 16 44 a1 3c
       0.47487044 -0.81470567 -0.07443617 0.019685786
000010 c7 f6 20 bf 76 7c 22 3f d5 ae d9 3d d9 b0 db be
       -0.6287655 0.6347116 0.1062905 -0.42908362
000020 f4 8a 14 3f a3 fc 42 3f f5 f1 3a 3f cb 9c b3 be
       0.58024526 0.76166743 0.7302545 -0.3508056
000030 9d e1 35 be 6f d2 16 bf eb f6 22 3e 2a 7b 69 3e
       -0.17761846 -0.58914846 0.15914504 0.2280089
000040 ba 98 2f bf 60 c7 4a 3e 5b df 52 bf ca fb 4c 3f
       -0.6859242 0.19802618 -0.82372063 0.800717
000050 d1 43 20 3f d4 43 88 3e b7 38 4e bf 48 71 b0 be
       0.6260348 0.2661425 -0.8055529 -0.34461427
000060 07 69 e7 bd a6 3f 5b 3e b1 cd ab 3e c5 8b 16 bf
       -0.11299329 0.21410999 0.33555368 -0.5880702
000070 b5 5e 19 3f fb cb 59 bf fe dc 3f 3f 09 cd cb 3e
       0.59910136 -0.85076874 0.7494658 0.39804867
000080 05 45 df 3c 3b 29 ef bd c2 2e bc 3e 4f f7 5d be
       0.02725459 -0.11677786 0.36754423 -0.21676372
000090 17 1b ff 3d b1 39 fd 3e 34 1e 08 3f 87 90 c3 3e
       0.12456339 0.49458078 0.53171086 0.38196203
0000a0 b1 36 15 bf 95 20 ac 3d 8a 39 c0 3c a8 66 57 3e
       -0.5828658 0.08404652 0.023464937 0.21035254
0000b0 4b 04 2a 3f 40 1c 40 3f 07 80 e7 be a9 c8 d2 be
       0.664128 0.75043106 -0.45214865 -0.41168717
0000c0 95 19 bf 3e 7b da 02 bf e8 68 31 bd d6 90 cb 3e
       0.37324205 -0.51114625 -0.043312937 0.3975894
0000d0 d6 ec 9e be fe 50 26 be 93 c4 f1 be 9a 69 44 bf
       -0.31040066 -0.16241834 -0.47220287 -0.76723635
0000e0 89 14 e6 bd 18 6c c7 3d c8 46 04 bf 34 d0 83 bc
       -0.112343855 0.09737414 -0.51670504 -0.01609049
0000f0 d9 68 49 3f a8 27 b6 be b3 4b a9 3e 13 d4 d5 3e
       0.7867561 -0.3557713 0.33065566 0.41763362
000100 3f e3 4b 3f 85 c4 5e 3e 90 26 ac be 3a c3 1b bf
       0.79643625 0.21754654 -0.3362317 -0.6084477
000110 28 8a 09 bf 45 d9 70 3b 21 2e c9 bd 58 fe 12 3f
       -0.53726435 0.0036750596 -0.098232515 0.5741935
000120 d1 5d d3 be 80 55 89 3e bf 36 74 bf 7f 82 42 be
       -0.41282514 0.26823044 -0.95396036 -0.18995093
000130 b1 44 c6 3e 95 46 e5 3e b9 61 90 3d 3e 60 bc 3e
       0.38724282 0.44780412 0.07049889 0.36792177
000140 0d 6f 0d bf 60 08 d9 3e d2 0f c2 be e8 36 c3 3e
       -0.55247575 0.42389202 -0.37902695 0.38127828
000150 f4 a9 0e 3e d5 22 11 bf 28 02 25 bf 8e 2d 9e bc
       0.1393202 -0.56693774 -0.64456415 -0.019308832
000160 ea d0 3d 3e 6a eb e1 3d e3 95 85 3e d0 06 df 3c
       0.18536726 0.1103123 0.26090917 0.027224928
000170 fd 74 43 bb 64 a1 81 3e 25 74 3c be 1e 4e f9 3e
       -0.002982437 0.25318444 -0.1840368 0.4869241
000180 c8 96 0e bf 96 74 3a bd 16 f2 89 3e b8 64 0c 3f
       -0.55698824 -0.04552134 0.2694251 0.54841185
000190 fa fe db be 7c 68 26 3f 15 20 2b 3f 20 85 e2 3e
       -0.4296797 0.6500318 0.6684583 0.4424219
0001a0 58 d4 3c bc ad e7 2f 3d 69 ea 14 3f 08 45 ba 3e
       -0.011525236 0.042945553 0.5817018 0.36380792
0001b0 59 15 4b bf 14 d1 04 bf 6b 91 47 bf a3 bf 2f 3e
       -0.7932945 -0.5188153 -0.77956265 0.17162947
0001c0 28 0d 14 be 32 ea 19 3f c8 3e d5 3e 8b 6d f0 be
       -0.14458144 0.6012298 0.4164946 -0.46958575
0001d0 27 ea f9 be 6b f8 98 3e 31 6a 2b bc 6f db 1b 3f
       -0.48811457 0.29877028 -0.01046233 0.60881704
0001e0 38 f7 e9 be 4c 19 42 bf 19 eb f8 be 2f a1 a3 3e
       -0.45696425 -0.7581985 -0.48616865 0.3195891
0001f0 17 6b 86 bf 47 c2 fc bd 16 06 25 3f 11 3b 02 3f
       -1.0501431 -0.12341743 0.6446241 0.5087138
000200 ed b0 d5 bd af a5 e3 3e e5 76 65 bd 3d 98 1a 3f
       -0.104341365 0.44462344 -0.05602159 0.6038855
000210 1d 83 0d bf d9 d4 90 be 75 8f 64 3c 97 d3 1a be
       -0.5527819 -0.2828739 0.013950218 -0.15119778
000220 98 bf 4b 3f 53 24 a4 3e 3a 66 b2 be c8 3c 9f 3e
       0.79589224 0.32058963 -0.34843618 0.3110106
000230 1c a8 e2 3c 50 59 2f 3e a9 71 38 bf 65 2f cd 3e
       0.027668051 0.17123914 -0.7204843 0.40075222
000240 a6 83 b7 bd 14 25 b2 3e 17 04 42 3f a2 4a 3e bf
       -0.08960657 0.34793913 0.7578749 -0.7433263
000250 e8 2b 28 3e c8 0f 93 be ff ff 55 3f 23 0b 61 be
       0.16422999 -0.28722978 0.83593744 -0.21976905
000260 1c 15 f5 be 5d 85 46 bd d4 37 ba be 2a 07 b3 be
       -0.47867668 -0.04846703 -0.36370718 -0.34966403
000270 b9 34 c3 3e 2c 58 b4 3e 3e c6 fc bd 9d a3 4f 3a
       0.38126162 0.3522352 -0.12342499 0.00079208036
000280 75 aa 30 3d 3f cf e5 3d c9 5e 16 bf 56 f1 ab be
       0.04313131 0.1122117 -0.5873838 -0.33582562
000290 ea a9 cf be ee ed 12 bf 9b 28 be 3e ba cf f2 3e
       -0.40559322 -0.573943 0.37140355 0.47424108
0002a0 3b 8c 0a 3f e3 09 0f 3f 0a 60 47 3f a0 6f 1d 3f
       0.54120225 0.5587446 0.7788092 0.6149845
0002b0 33 fd 81 bf c6 46 c7 be f6 38 57 bf bb 86 5f bd
       -1.0155395 -0.38921183 -0.8407129 -0.05457185
0002c0 07 63 94 be 09 5e 0f bd 5a b7 a9 be 22 a9 24 bf
       -0.28981802 -0.03500179 -0.331477 -0.64320576
0002d0 46 31 ac be e6 71 88 bd 26 c2 52 3d 00 eb 04 3e
       -0.33631343 -0.066623494 0.051454686 0.1298027
0002e0 2f 18 da 3e dc 4a 74 bd 8f b1 91 be 3f fb 07 3e
       0.42596576 -0.059641704 -0.2845578 0.13279437
0002f0 b9 0a 53 3e ae da 9b 3e 32 c1 87 3e 4f 11 96 bd
       0.20609559 0.30440277 0.26514584 -0.0732752
000300 c2 02 27 bf a2 d3 41 bf 2c ea 05 bf 22 e1 48 3e
       -0.65238583 -0.7571355 -0.5231044 0.19617131
000310 f6 08 15 3e 84 77 31 3f 21 6a 07 3e b9 0f 9b be
       0.145542 0.6932299 0.13224079 -0.30285433
000320 33 56 46 3f f2 a4 11 bf a8 d3 d7 bb f6 2a 1d bf
       0.7747528 -0.5689231 -0.0065865107 -0.6139368
000330 3f be 8d be 81 63 73 be 11 6e f0 3e 06 2f f2 3e
       -0.2768421 -0.23768426 0.46958974 0.473015
000340 14 a8 69 3e 3b 9a f6 be 47 12 0a bf 3c d7 9f be
       0.22818023 -0.48164544 -0.5393414 -0.31218898
000350 ae 5f b6 bd 8f 31 3a 3f c5 2a 31 bf 1d 3d 82 be
       -0.08904968 0.7273187 -0.69205886 -0.2543725
000360 93 b1 e0 be 75 f7 e9 be 17 69 5a 3e 28 f6 18 3f
       -0.43885478 -0.45696607 0.21329151 0.59750605
000370 dc a9 1b bf 8a f6 49 3f d5 d4 20 bf 5c 93 1c 3f
       -0.6080606 0.78891814 -0.62824756 0.6116235
000380 37 c9 1f 3f 56 44 b9 bc 96 db 1d be 8d f3 e2 be
       0.62416404 -0.022615593 -0.15415797 -0.4432644
000390 8d 64 69 3d 2d 20 20 be a0 e1 4d bf 14 3f 9f 3e
       0.05698066 -0.15637274 -0.804224 0.31102812
0003a0 ff a3 a1 bc b0 f0 ce 3e f5 ad 07 be db 28 64 3e
       -0.01973152 0.40418005 -0.13249953 0.2228121
0003b0 dc 2c 10 3d f7 43 0b bf da 0d 85 3d 3c dd a6 be
       0.03519903 -0.5440058 0.064967826 -0.32590663
0003c0 cc 03 d7 3e d4 f0 95 be 29 cb 44 be 39 ea 94 be
       0.41995084 -0.292853 -0.19218124 -0.29084948
0003d0 d3 18 c9 bd 95 34 80 be f0 05 3e bf 5b 94 52 3f
       -0.09819188 -0.25040117 -0.7422781 0.8225762
0003e0 69 4c c0 be 2d 27 4a 3e a7 0f d7 bd c8 52 b3 3e
       -0.37558296 0.19741507 -0.10501032 0.35024095
0003f0 74 37 7c 3c 4e 63 36 bf 07 53 e0 3e 59 d6 80 3e
       0.01539408 -0.71245277 0.43813345 0.25163534

deeptabular.0.encoder.mlp.dense_layer_0.0.weight f4 [256, 216]
000000 4a 9e 35 be 1a f6 8f 3e c5 7f 8c 3e 5b 4b da 3e
       -0.17736164 0.28117448 0.2744123 0.42635617
000010 6b 2e 2b be a7 1f 54 be 23 13 0a 3e 4e a0 2b 3e
       -0.16716926 -0.207152 0.13483863 0.1676037
000020 29 46 79 3e e5 27 ae bd 6c 6a 00 3d 23 ee a3 3e
       0.2434317 -0.08503703 0.03135149 0.3201762
000030 7b 4e 57 be dd c1 ad 3c 0b 6e 9c 3e cf 52 bd be
       -0.21026032 0.021210605 0.30552706 -0.3697724
000040 d9 7c 80 3e 5c db f1 3e 48 89 4a 3d db c2 e6 3d
       0.2509525 0.4723767 0.049447328 0.112676345
000050 e5 99 7e 3e 02 15 9c bd fd 73 d1 bd 3e ec d0 3d
       0.24863394 -0.076211944 -0.10227201 0.102013096
000060 10 07 0e be de 32 72 be 2c 52 30 be 0f ce 19 be
       -0.13869882 -0.23652217 -0.17218846 -0.15020011
000070 86 08 5f 3e e1 ef 97 3d f7 62 5c 3d c2 51 db 3d
       0.21780595 0.074188 0.053805318 0.107089534
000080 25 49 f2 3d 3f 34 a9 3e 25 6c d0 3d 23 6d 58 bd
       0.118303575 0.33047673 0.10176877 -0.052838456
000090 aa ac 44 3e a7 80 c1 be 04 fe 83 3e 3e 4b 1f bf
       0.19206491 -0.37793466 0.25779736 -0.62224185
0000a0 67 6a d6 3d 8e 2b 24 be 0c 8e 2d bb da e9 f5 3c
       0.104695134 -0.1603224 -0.0026482372 0.030018736
0000b0 18 81 06 3f b5 cf 57 bd 60 8c 33 3e a4 38 8f be
       0.5254073 -0.05268832 0.17534018 -0.279729
0000c0 f9 d0 af bc 93 61 88 3c e5 05 f4 bd 45 de 09 bd
       -0.02146195 0.01664809 -0.11915187 -0.03365924
0000d0 0f d5 f8 be 3f 8a 36 be 5f 6c bd be cb 6f b3 be
       -0.4860005 -0.17826174 -0.36996743 -0.3504623
0000e0 ed d6 f0 3c d5 e5 63 be 92 f5 d0 bc 64 79 83 be
       0.02939936 -0.22255643 -0.025507722 -0.2567855
0000f0 c4 06 30 bd c4 96 29 3e 6b d8 9b bd 35 f7 44 3d
       -0.042975202 0.16561419 -0.07609638 0.048087317
000100 59 0c 1a be 7a 2c bc bd 79 0d bf be b8 13 59 be
       -0.15043773 -0.09188171 -0.37314966 -0.21198928
000110 68 fa 09 3e ae 07 43 3d 32 de be 3d 3f c3 41 3e
       0.13474429 0.047614746 0.09319724 0.18922137
000120 ab 3d c2 3e ae ab ab 3e dd b9 0d 3e bb 1c 32 3e
       0.37937674 0.3352942 0.13840432 0.17393772
000130 45 d9 f0 3d bc d2 c2 bd df f6 22 be 17 25 92 be
       0.11760191 -0.09512851 -0.15914486 -0.28543922
000140 9f cf 51 be ca e1 85 3e 0b 15 4b 3d e9 d5 ec bd
       -0.20489357 0.26148826 0.049580615 -0.115642376
000150 e5 06 5e be a3 e4 26 bd be df 7d be 58 c1 21 3e
       -0.21682318 -0.04074539 -0.24792382 0.15796411
000160 51 f4 a2 be d6 22 aa bd d9 57 68 be e2 a4 55 be
       -0.31827024 -0.08307426 -0.22689761 -0.20863679
000170 e4 5f bb bd 9e d8 13 3e 11 8a 75 3e dc 60 79 3e
       -0.09149149 0.14438102 0.2397845 0.24353355
000180 ff 32 2d be a3 f0 ab 3d f0 da e9 be 79 3b f6 3d
       -0.16913985 0.08395507 -0.4567485 0.12023062
000190 e8 e2 9b 3a ad c6 14 3d f7 78 70 be 4d 84 aa 3e
       0.0011893185 0.036322284 -0.23483644 0.33304062
0001a0 e1 c2 80 3e 6d 49 19 3e 14 0d 14 3d 1c 6c 96 be
       0.2514868 0.14969416 0.036145285 -0.29379356
0001b0 ea 2a fb 3d 9a b0 74 3e 9f 1a c5 bf e2 16 ed 3c
       0.122640446 0.23895493 -1.5398749 0.028941575
0001c0 56 ea c7 3e 84 ac 5d 3f 49 b0 89 bf 94 97 4b bf
       0.39045972 0.8659136 -1.0756923 -0.79528165
0001d0 35 6d 82 3e 52 cf 3b be 38 f7 bc 3e 91 3f 39 bf
       0.25473943 -0.18340805 0.36907363 -0.7236262
0001e0 12 8b 80 3f 1d 0c 0c 3e cf 8b c6 be 9e 23 30 be
       1.0042441 0.13676496 -0.3877854 -0.17201087
0001f0 33 9f ab 3e 85 db b7 bf 7b a4 e8 be 7f e7 fc be
       0.33519897 -1.4363867 -0.4543799 -0.49395368
000200 22 3f 2b bf 33 c8 d4 bd 57 ad 91 bd 2e 65 e0 be
       -0.6689321 -0.103897475 -0.0711314 -0.43827194
000210 26 8b 4b 3f d6 21 ce be 40 64 b3 be 70 03 a8 be
       0.795092 -0.4026019 -0.35037422 -0.32815123
000220 38 22 33 3e 91 20 80 c0 82 24 6e be bd 4a 31 3f
       0.17493522 -4.0039754 -0.23256114 0.69254667
000230 55 32 0f bf 4b 94 a5 bf 86 82 64 3f eb 94 ba bf
       -0.55936176 -1.293588 0.8926166 -1.4576696
000240 12 2f 3d be 61 a5 4e be e3 b3 33 3e f3 74 50 3f
       -0.18474987 -0.20180275 0.1754909 0.8142845
000250 23 8e 0c 40 6e 1c 38 be 33 37 aa be d5 ba 1c 3f
       2.1961753 -0.17979595 -0.3324524 0.61222583
000260 39 f3 ba 3d 57 1d aa bd 36 10 85 3e 17 d9 80 3f
       0.09128422 -0.083063774 0.2598893 1.006625
000270 74 90 19 be c9 71 0e 3f eb c4 54 3e f1 5c 82 be
       -0.1499651 0.5564237 0.20778243 -0.25461534
000280 72 71 4f bf 00 9f 99 bd a0 9b ac be 65 59 fa 3d
       -0.8103248 -0.0750103 -0.33712482 0.12224082
000290 54 ab da be 49 5c 0a be 8c 21 2a 3f af af 51 be
       -0.42708838 -0.13511766 0.6645744 -0.20477174
0002a0 fd 18 e3 3f aa 06 d8 3c 8c 4b 8b bb a6 1e 4a bf
       1.7742001 0.026370365 -0.0042509492 -0.78953016
0002b0 08 e2 a7 be 90 b4 f4 be bd 56 c1 be 54 42 8b be
       -0.32789636 -0.47794008 -0.3776149 -0.27199042
0002c0 49 d5 20 bf 6b 03 14 3f 23 24 20 bf ad e2 a1 3d
       -0.6282545 0.57817715 -0.6255514 0.07904563
0002d0 f0 9c a4 be 41 4d a8 3d a7 6f c7 bd 00 d7 1f bf
       -0.32150984 0.0821786 -0.09738093 -0.6243744
0002e0 ef b9 37 be 87 40 cd 3e 88 33 0f bd ac 98 00 bf
       -0.17942022 0.40088293 -0.034961253 -0.5023296
0002f0 58 54 e2 be 60 1d 81 be dc 93 f6 be 0b 52 92 be
       -0.44204974 -0.25217724 -0.48159683 -0.2857822
000300 c7 b8 9e bd f5 15 5c 3e cd fa 54 bd 02 be 6a 3f
       -0.07750087 0.21492751 -0.051996995 0.9169618
000310 c5 e6 60 3e 0c 7e 02 3f dc a3 21 bf a1 fa 6c 3e
       0.21963032 0.5097358 -0.63140655 0.23142482
000320 ba 15 1c 3f ef dc 78 be bf 55 04 3f 74 fa ec bc
       0.6097065 -0.2430303 0.5169334 -0.02892802
000330 97 78 c0 3e 13 e8 e7 be 20 fb 98 3c 39 5d 5f 3e
       0.37592003 -0.45294246 0.018674433 0.21812905
000340 b5 fc 23 bf ac 9f c9 be de 05 cd be e5 06 3f 3f
       -0.64057475 -0.39379632 -0.4004354 0.74619895
000350 0c 2c b7 bf e4 a3 16 be af 2e b9 3e 87 7e 2f 3d
       -1.4310317 -0.14710957 0.3616843 0.042845275
000360 0d 10 11 3e 49 36 a1 3d 9d ba 06 3e 9d a8 e0 3e
       0.14166279 0.07871682 0.13157125 0.43878642
000370 d3 e7 7b bd 10 e2 b7 3d 72 36 14 3e c6 3d 93 bc
       -0.06150038 0.08978665 0.14473894 -0.017973792
000380 2e df 56 be af a2 e7 bd e7 b8 62 be c0 d4 8c be
       -0.20983574 -0.11310326 -0.22140847 -0.27506065
000390 69 4e e0 bd 6a 23 ec bd a0 c9 8a 3d e3 af 8a 3d
       -0.109524556 -0.11530192 0.06776738 0.06771829
0003a0 e1 ab 93 be b5 07 19 be a3 b3 6b 3d 78 bb ee bb
       -0.2884207 -0.14944346 0.05754436 -0.0072855316
0003b0 26 53 c1 3e a7 d3 95 3d f6 77 69 3e 80 d1 9f 3e
       0.3775875 0.0731576 0.22799668 0.31214523
0003c0 a2 a2 77 be 30 28 d1 be 89 21 8f 3d 12 66 18 be
       -0.24183133 -0.40850973 0.06988818 -0.14882687
0003d0 c9 e3 a8 be 29 ec 83 be ac 76 4b 3e 88 a8 72 be
       -0.32986286 -0.25766113 0.19869488 -0.23697102
0003e0 2a d5 8d 3e 2d 6d 08 be 25 1c a2 b9 bd 79 a9 be
       0.27701694 -0.13322897 -0.00030920017 -0.3310069
0003f0 ca 19 f0 bd b6 7e 14 bf 57 97 ae 3e 86 5e 63 3e
       -0.11723669 -0.58005846 0.34099838 0.22204027

deeptabular.0.encoder.mlp.dense_layer_0.0.bias f4 [256]
000000 46 85 d9 3d 2d 69 5f be bf eb 45 be 0a 6a 11 be
       0.10621123 -0.21817465 -0.19328211 -0.14200607
000010 ac 43 cf 3d e7 a8 b6 3d f6 1b 7b be 4b 3b b5 be
       0.10120329 0.08918934 -0.24522385 -0.353968
000020 46 36 5d 3e ab c6 1d 3d 10 5b 4f 3c 8e e2 81 be
       0.21602735 0.038519543 0.012655988 -0.2536816
000030 d4 a2 6f bc af a4 83 bd f0 7d 4c be 37 1d 57 3d
       -0.014626224 -0.06427895 -0.19969916 0.052518096
000040 ee 52 cb 3d d8 ba 84 3d f8 74 10 3d e1 bb 05 be
       0.09927927 0.0648095 0.0352678 -0.13059951
000050 f6 e8 01 be 92 50 a7 bd f0 c8 35 be b9 61 e5 3b
       -0.12686524 -0.081696644 -0.17752433 0.007000175
000060 80 60 68 be 9d 64 c4 3c bf 53 15 3d 0f ff 4b bd
       -0.22693062 0.023973757 0.03645682 -0.04980379
000070 53 59 62 be 9a 64 25 bc cf d8 dc bd 49 c4 4e bd
       -0.22104387 -0.010094786 -0.107835405 -0.05048016
000080 70 6b 05 be 0a 00 80 be bd 9a 7c bd 33 6e 5d bd
       -0.13029265 -0.2500003 -0.061671007 -0.054060172
000090 1e d0 c2 3c ab 67 60 be 3f aa 55 be e6 5e 33 3d
       0.023780879 -0.21914546 -0.20865725 0.043791674
0000a0 20 bc 15 bd ff 0e 84 be 47 ca db be 8d 73 93 bd
       -0.036556363 -0.2579269 -0.42927763 -0.07199774
0000b0 32 77 30 be 82 06 8e be da 40 24 bf c9 23 22 3e
       -0.1723297 -0.2773934 -0.64161456 0.15833963
0000c0 9f f0 3d 3e 82 3c dc 3d 7d 20 0f 3b 0d 2e b8 3c
       0.18548821 0.107537284 0.0021839433 0.022482896
0000d0 d2 da 96 be 13 54 08 bf 7a 8d 60 3e 68 27 c3 3d
       -0.29463822 -0.5325329 0.21928969 0.095290005
0000e0 57 5b b8 3d 4b 20 a0 bd c8 0d 12 3e 25 25 9d bd
       0.09001797 -0.078186594 0.1426307 -0.076731004
0000f0 00 bd b1 be 93 71 d1 bd e6 8b 61 bc 32 af 62 be
       -0.34714508 -0.10226741 -0.013766265 -0.22137144
000100 62 fd 94 bd cd 11 b5 3d 97 e7 e8 be 7c 32 be 3d
       -0.072748914 0.08841286 -0.4548919 0.09286973
000110 cf 04 df be 0c 83 95 bd ca a6 fd be cb c3 1a 3e
       -0.43558356 -0.07300386 -0.49541312 0.15113752
000120 b5 30 c6 bd 6e d7 3e be fc ae bb be c3 26 05 be
       -0.09677259 -0.18636867 -0.3665694 -0.13003068
000130 d6 ef 39 be 8b 7a 6f be 88 61 be bd 04 8d 52 be
       -0.18157896 -0.2338659 -0.09295946 -0.20561606
000140 fd e5 71 be 74 4b d9 be e6 1d ed 3d 80 39 88 be
       -0.2362289 -0.4244038 0.11577968 -0.2660637
000150 5a ed d4 be 3c 77 70 be 16 84 16 bf 26 dc b3 bd
       -0.41587335 -0.23482984 -0.587953 -0.08782224
000160 db 96 96 be a9 7d 7d 3e 9e e3 84 be 9b 5d 87 be
       -0.2941197 0.24754967 -0.25954908 -0.26438603
000170 b3 77 1b be 7d ad 3b be 64 ec 26 3d 6a b7 21 3d
       -0.1518238 -0.183279 0.040752783 0.039481558
000180 7e ba 70 3e c8 63 c6 be de eb 22 bc ba a0 da bd
       0.23508641 -0.38748002 -0.00994393 -0.106751874
000190 5e d5 09 bf 8b 7d 7b be 85 36 1c be b9 47 c4 bd
       -0.538412 -0.2455961 -0.15255173 -0.095839925
0001a0 03 07 30 be 2a f9 24 3d c5 9b 56 be 16 35 61 bc
       -0.17190175 0.040276684 -0.20957859 -0.013745567
0001b0 05 89 8b bd 14 2b 22 be 02 1b 0c 3e 10 ea 1b be
       -0.06813244 -0.15836746 0.13682178 -0.15226007
0001c0 06 dc 0d be 6d 0a 7d be 34 48 1e be a8 18 17 be
       -0.13853464 -0.24711008 -0.15457231 -0.147555
0001d0 cb 57 89 bd 4c 05 08 be 83 b7 22 3d 0b 14 e2 3d
       -0.06706198 -0.1328327 0.03972579 0.11038979
0001e0 e9 e6 32 be e5 0b 5e be 0a 9f d9 bb a3 d9 d8 be
       -0.17470898 -0.21684225 -0.0066412734 -0.42353544
0001f0 bf 22 59 be 90 bc e3 bd 0d f0 70 be e4 9b cb be
       -0.21204661 -0.1111995 -0.23529072 -0.39767373
000200 88 9c af be 73 94 e1 3d 46 c7 b4 be db e6 8f 3c
       -0.3429911 0.110146426 -0.35308284 0.017566135
000210 86 ad d3 be b0 8b 57 3d 34 73 c3 be 8e 44 9a be
       -0.41343325 0.05262345 -0.3817383 -0.30130428
000220 88 7d 01 be f2 88 c3 3d 55 46 96 be a9 3c 5d be
       -0.12645543 0.095476046 -0.29350534 -0.21605171
000230 20 5d ff 3d 70 54 15 3e 7f d0 94 be ff c8 2f bd
       0.12468934 0.14582992 -0.2906532 -0.042916294
000240 29 98 a0 bd 04 ea 55 be db df f2 bd d1 43 3e be
       -0.07841522 -0.20890051 -0.11859103 -0.18580557
000250 44 2f 27 3e 45 b1 00 be 4e 28 2d 3d 11 b6 a7 be
       0.16326624 -0.12567623 0.042274766 -0.32756093
000260 d2 78 2f be e9 54 d4 3c 99 93 d3 be 68 3f 93 3d
       -0.17135933 0.025919395 -0.41323546 0.07189828
000270 b6 f0 5d be f4 25 b5 3d 79 c2 53 be 76 a0 7e be
       -0.21673855 0.088451296 -0.20679654 -0.24865898
000280 d3 b7 c9 be cb 2b 5b bc ed 37 8f be aa 49 6a bd
       -0.3939806 -0.01337714 -0.27972355 -0.057199158
000290 df b6 a1 be 90 39 b5 bc af 39 d1 be 76 0b 2e be
       -0.31584832 -0.022122175 -0.40864322 -0.1699656
0002a0 44 c2 15 bd 8f bc 81 be 5c 5e 8f be 91 75 ef bd
       -0.03656222 -0.2533917 -0.28001678 -0.11692346
0002b0 85 62 84 3d 03 9f 01 3d 4c 2b 59 be ce c7 8f bd
       0.064641036 0.031645786 -0.21207923 -0.070205316
0002c0 a5 d8 55 be c4 bb 5c 3d 55 62 8d 3b f3 60 d7 be
       -0.20883425 0.053890005 0.0043147006 -0.42066154
0002d0 82 b8 84 bd 2e 98 a8 bd 1c c6 11 be f3 83 8f bd
       -0.064805046 -0.08232151 -0.14235729 -0.07007589
0002e0 4d 3a 83 be 85 54 e1 3d ab 99 70 be 1f 68 28 3e
       -0.25630417 0.11002449 -0.2349612 0.16445969
0002f0 22 3b 11 be 83 3f ba 3d f5 c5 5e 3c 65 e1 a2 be
       -0.14182714 0.09094145 0.013597001 -0.31812587
000300 b4 77 fe bd c3 5c 44 3d fd 4f 4d 3e 9c 87 46 3d
       -0.12425175 0.047940027 0.20050044 0.04846917
000310 1c a2 83 3d 52 e5 5f 3d 49 22 af be e7 a4 a4 bd
       0.06427404 0.054662056 -0.34205845 -0.08039265
000320 78 1e 6b be 4e 6e 82 3d 3d 4c dc bd bc 75 d9 be
       -0.22960842 0.06368695 -0.10756729 -0.42472637
000330 96 c5 35 3d f9 ff c0 be c4 bd d2 be 85 24 30 be
       0.044377886 -0.37695292 -0.41160405 -0.17201431
000340 8b bc a7 be 5d 73 96 be ff 75 cc 3d 4e 32 4f be
       -0.32761034 -0.2938489 0.099834435 -0.20234033
000350 30 ca ab be af 17 55 3d 68 cf 4c 3d 3e 61 b0 be
       -0.33552694 0.05202454 0.050002486 -0.3444919
000360 06 92 8b 3d 66 cb 37 be a4 e2 be 3d f7 e5 0e 3e
       0.06814961 -0.17948684 0.09320572 0.13954912
000370 11 70 1d be b2 cc 82 be 7b dd 54 3e 1a cf 79 be
       -0.15374781 -0.25546795 0.20787613 -0.24395409
000380 a5 8f 50 bd 5c 08 da bd 6d ba 05 be 89 30 81 be
       -0.05091824 -0.10646126 -0.13059397 -0.25232342
000390 2f 56 3f bd 0a 91 24 be 15 f9 9e be 0a 69 1f be
       -0.04671305 -0.16070953 -0.3104941 -0.15567413
0003a0 a4 ec b8 be e7 af c2 be 2f 7d c5 3c 71 85 21 3e
       -0.36118042 -0.38024828 0.024107544 0.1577356
0003b0 c5 13 b4 be 3c 12 9a be 1d 4e 97 3d 01 6a 9c be
       -0.35171333 -0.30092037 0.07387946 -0.30549625
0003c0 cb 58 8b bc 2d 07 7e 3d 54 17 1b 3d 2e 7c 6c 3e
       -0.017010113 0.062018562 0.037864044 0.23094246
0003d0 31 3d bc be f8 8e 8b be d8 aa a2 be dc 01 c9 be
       -0.36765435 -0.27257514 -0.31770968 -0.3925923
0003e0 e9 46 1d bd dc 37 bf bd 86 47 e3 3d dd 1f 3e 3e
       -0.038397703 -0.09336826 0.110976264 0.18566842
0003f0 1c 41 93 be ab e3 38 3e 5a ba 80 bd 88 98 0e be
       -0.28760612 0.18055598 -0.06285544 -0.13925374

deeptabular.0.encoder.mlp.dense_layer_1.0.weight f4 [128, 256]
000000 0f 1a 3c be ba 39 36 3d b0 09 d2 3d 9a ec d8 bd
       -0.18369316 0.044488646 0.10255754 -0.10592003
000010 1f c1 f4 3d 41 40 c4 3e 91 d7 ad bd ea 8a f8 3d
       0.119508974 0.38330272 -0.08488382 0.12135871
000020 ce 22 27 3e 5a 44 89 3e 39 46 eb 3b 1d 5c a2 bd
       0.1632187 0.2680996 0.007180002 -0.079277255
000030 11 9a 0c be 87 2a a4 3e b7 26 bf bd a1 0a 2e 3c
       -0.13730647 0.32063696 -0.09333556 0.010622651
000040 50 d9 51 3e 61 3f 78 be 89 50 10 3b 89 c7 41 3e
       0.20493054 -0.24242927 0.002202066 0.18923773
000050 6d d3 96 3d eb 30 3a be eb ed ac 3d 07 5b 84 be
       0.07364545 -0.18182723 0.08443817 -0.25850698
000060 21 17 a0 3c 77 e3 ab 3e 20 a7 c9 3d 66 f5 d7 bc
       0.019542279 0.3357198 0.0984633 -0.026362132
000070 e2 f5 b6 3d 35 55 59 3e 7b 60 13 3d 7c f7 ee 3c
       0.08933617 0.2122391 0.035980683 0.029170744
000080 a6 12 01 be 4f 0d 96 3d 8b 85 22 3d ac 6f cb 3e
       -0.1260477 0.07326757 0.039678138 0.39733636
000090 d1 27 d1 3c 66 f9 e7 bd c4 a1 0b be 14 96 9f 3e
       0.025531681 -0.11326866 -0.13635927 0.31169188
0000a0 16 c8 31 3f bb 9c 44 bd ba 40 81 bb 3d 8a c7 be
       0.6944593 -0.048001032 -0.0039444836 -0.38972655
0000b0 b2 08 2a 3e c1 a9 d3 3c 60 8a 07 bc f0 3f af bd
       0.1660488 0.02583778 -0.008272737 -0.08557117
0000c0 13 2d 32 3a ae d2 96 bd f0 f8 bf bd 12 17 67 be
       0.0006796878 -0.07364403 -0.09373653 -0.22567394
0000d0 bf bd cb 3e c4 b1 84 3e a7 d1 82 bd 17 2f ab be
       0.39793202 0.25916874 -0.06387644 -0.33434364
0000e0 82 93 6e be b3 89 ad 3d ad 80 e8 3e c2 9d 81 bd
       -0.23298457 0.0847353 0.45410672 -0.06328918
0000f0 94 a6 65 be 9b 8b f7 be 3e b0 d5 3e 16 fe c0 3d
       -0.22426826 -0.48348698 0.41736025 0.09423463
000100 37 e4 7f be 62 0d 6a 3e 9f ce da 3e aa a1 d2 bd
       -0.24989401 0.22856668 0.42735764 -0.10284741
000110 8c 0e f2 bc 5c 53 1b ba 26 3b c6 bd f0 d7 64 3d
       -0.029547952 -0.0005925202 -0.096792504 0.055869997
000120 5d 1f a9 3b 44 e3 7f bd e9 c2 db bd 25 c9 06 be
       0.0051612095 -0.062472597 -0.107305355 -0.13162668
000130 5f 4b 24 3e ad af 39 3e 11 2e 05 be 10 eb 44 bd
       0.16044377 0.18133421 -0.13005854 -0.048075736
000140 c0 19 24 be d4 10 13 3d 0d 78 97 3a a8 8b 6d 3d
       -0.16025448 0.03590472 0.0011556164 0.057994515
000150 ba b0 de bd 84 56 87 bd fa 77 ab 3e 60 ea a5 be
       -0.10873552 -0.066082984 0.33489972 -0.32405376
000160 27 f5 66 bc cb 4f c2 be 58 0b 78 3d 40 ab 94 3e
       -0.014096535 -0.37951502 0.060557693 0.29036903
000170 d1 be 03 be 50 a6 f8 3e af bc ac bd 1e fd ff 3d
       -0.1286576 0.48564386 -0.08434426 0.1249945
000180 7e 4a c5 be 6a b4 13 bd ec 20 72 be a4 b7 85 bd
       -0.38533396 -0.036060728 -0.23645371 -0.06529167
000190 7a b8 cf 3d 65 00 21 be 72 44 3d 3f 73 ff 5b 3e
       0.10142608 -0.15722807 0.73932564 0.21484165
0001a0 53 b1 ad 3e b9 c1 b7 bd fe f0 b9 bd f6 aa 2a be
       0.3392435 -0.089724965 -0.09079169 -0.16666779
0001b0 a2 37 02 3f 2f bd 0d be b2 c8 9f 3e 56 6e 0d be
       0.5086614 -0.13841699 0.31207806 -0.13811621
0001c0 4c b7 ca 3d 09 d8 8c 3d 7e 71 9f be 41 bf e3 3e
       0.09898242 0.06877143 -0.31141275 0.44481853
0001d0 87 93 09 3e f5 33 4e 3e 84 6b 1b 3f b1 10 e5 3e
       0.13435183 0.20137008 0.6071093 0.44739297
0001e0 b2 49 b8 3d ab 19 a1 3e 2d 32 87 3e a9 7c 6d 3e
       0.08998431 0.31464896 0.2640547 0.23192085
0001f0 07 38 16 3f 6a b3 f5 bd c8 70 c7 3e 52 fe 86 bd
       0.5867924 -0.11997111 0.38953233 -0.065914765
000200 cf 8c 21 3e 4b 31 57 be 1e f2 27 be 4b d1 34 be
       0.1577637 -0.21014898 -0.16400954 -0.17657964
000210 22 6e ed bd 94 19 14 be ec 0b ad 3e 39 84 10 3e
       -0.11593272 -0.14462882 0.33798158 0.14112939
000220 9b 35 7b 3e e7 d8 a4 3e 15 31 b0 3e 39 0b 55 3e
       0.24532168 0.32196733 0.34412447 0.20805062
000230 17 2c d1 bd 70 87 a3 3e 70 c8 f6 3d 40 5b 5b be
       -0.102134876 0.31939268 0.12049949 -0.21421528
000240 08 00 e6 3c f7 b6 42 3d b2 c2 d6 bc 2d 4f f1 3e
       0.028076187 0.04753777 -0.026215885 0.4713072
000250 86 07 34 be 66 d4 87 3d 91 9b 93 bb 62 bf aa bd
       -0.17580995 0.06632309 -0.004504629 -0.083372846
000260 b2 af 31 3e 8b 0b f7 bd 29 1a fa 3d 17 fa c0 bb
       0.17352179 -0.120627485 0.12212021 -0.005889188
000270 4a c8 b9 3d 82 24 ae bb 38 45 03 3e 84 61 cd 3d
       0.09071405 -0.0053144107 0.12819374 0.10028365
000280 be f3 c4 3d cd 31 b1 3e 11 1b 48 be 3f cf ad be
       0.09616803 0.34608307 -0.19541575 -0.3394718
000290 bc 06 fb 3d a1 a4 91 bd 69 e0 6b bd ec a3 42 3d
       0.12257144 -0.071114786 -0.05758706 0.04751961
0002a0 46 8e 16 bd 4d 22 67 be 90 16 b9 3e bf 19 b9 3d
       -0.036756776 -0.22571678 0.36150026 0.09038114
0002b0 ee 5f b1 bc a0 4a 00 be 9d cd 56 3e 30 6e 4d be
       -0.021652188 -0.12528467 0.20976873 -0.20061564
0002c0 46 8e 0b 3d 6f b0 1a bc f0 83 b9 3e 06 9c 2f 3e
       0.03407123 -0.009441479 0.36233473 0.17149362
0002d0 5f 67 e3 bc 10 74 4b 3e f0 0c 47 3e 93 b0 88 3d
       -0.027759252 0.19868493 0.19438529 0.06674304
0002e0 bd 7b 4e bd de b4 bc 3e ef 90 11 be 86 97 5b bc
       -0.050410975 0.3685674 -0.14215444 -0.013402825
0002f0 b5 48 2e bd 24 66 b8 3e e4 86 e0 3e e9 08 2d 3e
       -0.042549808 0.36015427 0.43852913 0.1689793
000300 53 0f 2b be 88 a3 40 3d e1 5b 92 bd e3 dc 23 3e
       -0.16705064 0.047030956 -0.07146431 0.1600223
000310 88 2a 91 3e cd c1 f8 bd c1 d7 86 3d d2 f4 05 3e
       0.2835276 -0.121463396 0.065841205 0.13081673
000320 5d 85 10 3e 86 ba 4e 3d 00 52 14 ba f4 6b 05 3f
       0.14113374 0.05047085 -0.0005657971 0.5211785
000330 f7 eb 6a be 07 88 16 be 47 f1 bb bc 45 03 71 be
       -0.22941576 -0.14700328 -0.022942198 -0.23536403
000340 87 71 c3 bc ae ec 8b bd b2 95 70 bd 0d 93 0c 3f
       -0.023857845 -0.068322524 -0.05873651 0.5491188
000350 ec 6b c6 3e 43 4b 93 3e d2 57 aa be 38 87 c6 3b
       0.38754213 0.28768358 -0.33270127 0.0060586
000360 31 b3 8f 3e e3 8d a3 3e 63 17 a2 3e fc 07 2d bd
       0.280664 0.31944188 0.31658468 -0.042243943
000370 fd 58 47 3e df 09 c6 3e 45 16 2e 3e 50 1f ca 3d
       0.1946754 0.38679406 0.17000683 0.09869254
000380 98 cc d6 bd f3 72 29 3f 7b 21 e9 3c b8 81 b3 bd
       -0.10488242 0.66191024 0.028458348 -0.08764976
000390 de 0d ce be 22 41 04 bc 59 88 ac 3d 0e e9 00 3d
       -0.40244955 -0.0080721695 0.08424444 0.03147226
0003a0 02 66 c5 bc d3 3f 68 3e e9 8c 9f 3d 04 b5 03 3e
       -0.024096493 0.22680597 0.07790548 0.1286202
0003b0 29 39 51 be 07 4b 87 3d f0 42 80 3e 7a f1 6b 3e
       -0.20431961 0.06606107 0.2505107 0.23041335
0003c0 ab 4d c7 bd f1 60 aa be d0 23 4d 3e 9c ad 0f bf
       -0.09731611 -0.33277085 0.20033193 -0.5612428
0003d0 0c bd 2e bc bf 30 7d be a1 2a c5 bd 29 0c c0 bd
       -0.0106651895 -0.24725626 -0.096272714 -0.09377319
0003e0 b7 a4 81 be ff 28 c6 bb 4a cc a9 be 5c b4 1f be
       -0.2532098 -0.0060473676 -0.33163673 -0.15596145
0003f0 42 7f b7 3e 5d ed 38 bf 42 cd 93 bd 4a 79 61 3d
       0.35839278 -0.7223719 -0.07216884 0.05504731

deeptabular.0.encoder.mlp.dense_layer_1.0.bias f4 [128]
000000 ea 64 ac bd 9c ab c9 be e4 ed 81 bd 0a 38 bb be
       -0.08417685 -0.3938874 -0.06344202 -0.36566192
000010 86 79 b2 bd 35 f2 c3 bd db ad 99 be 07 0f 29 3e
       -0.08714585 -0.09567682 -0.30015454 0.16509639
000020 2d 33 21 be e8 46 ed be 98 55 c9 bd 82 fd 93 be
       -0.15742178 -0.4634316 -0.09830779 -0.2890435
000030 1d 99 46 bd 20 33 98 bd a0 6f ac be 09 d9 ff bd
       -0.048485864 -0.07431626 -0.33678913 -0.12492568
000040 6a 67 d7 bd 9d 48 6b be ac 85 ca bd 44 78 8d bd
       -0.105177715 -0.22976919 -0.09888777 -0.069077045
000050 59 fd 40 be d9 c9 5b bd 31 ca 8d be b0 ba 2c be
       -0.18846644 -0.053659294 -0.27693322 -0.1686809
000060 6a f2 d5 be 2c 4c fc bd 7d 69 ed bd 68 4f d3 bd
       -0.4178651 -0.12319216 -0.11592386 -0.1031788
000070 e9 c9 da 3d fe 05 ba 3c 48 2a 01 be 9b c1 ad be
       0.106830426 0.022707935 -0.12613785 -0.33936772
000080 4d 75 a8 be 70 1e 45 3e 26 1a e6 be f8 2e 9e 3e
       -0.32901993 0.19249892 -0.44941825 0.3089521
000090 4e c6 92 bd df 8c be bc ec 5f a8 bd 49 ed f1 be
       -0.0716673 -0.023260532 -0.08221421 -0.47251347
0000a0 9c 83 bc be 75 7b a1 bd 5a 33 69 3c 15 42 75 bd
       -0.3681916 -0.07884876 0.014233435 -0.059877474
0000b0 b9 af 52 3e 60 cf 2b be f2 b6 89 3d f9 a0 41 be
       0.20574845 -0.16778326 0.06724347 -0.18909062
0000c0 bf 03 77 be 23 43 9b 3d fa ac 94 bd e8 ae 60 be
       -0.24122523 0.07581165 -0.07259555 -0.21941721
0000d0 6f 12 84 be 12 22 1a be 28 8f 90 3c 49 09 e2 be
       -0.25795314 -0.1505206 0.017646387 -0.4414771
0000e0 a2 43 bf bd c9 8c 0c be 9c ed 2e be 14 c9 c4 be
       -0.09339072 -0.1372558 -0.17082828 -0.3843466
0000f0 23 8c 82 3e 7a c0 e1 3d 29 ba 94 bd 58 8e aa bc
       0.2549754 0.1102304 -0.0726207 -0.020819828
000100 95 d9 95 be 6b d6 71 3e 58 7d 92 bd 0b 12 81 be
       -0.29267564 0.2361695 -0.07152814 -0.25209078
000110 f1 be ec 3d 67 ba e9 bc af e5 3a be 03 71 59 be
       0.11559857 -0.028531266 -0.1825168 -0.21234517
000120 15 c9 73 be 22 c7 8b bd f8 92 3a bc bc 58 6d be
       -0.23807175 -0.06825091 -0.011387579 -0.2317838
000130 70 5c 55 3e d4 e6 d0 bd 88 c2 db bd 8f a9 19 be
       0.20836043 -0.10200277 -0.10730463 -0.15006088
000140 26 b0 2f be ea b4 99 bd 55 ca c1 bd 07 76 02 be
       -0.17157039 -0.0750521 -0.0946242 -0.12740336
000150 c7 19 e1 be c0 c0 fb be 17 6e 03 bf d6 b4 55 3b
       -0.4396498 -0.49170494 -0.5133986 0.0032609007
000160 8f e2 88 be 72 f7 09 bb cb a5 29 be a0 b0 9b bd
       -0.2673535 -0.002105203 -0.16567151 -0.07602048
000170 d0 31 ca 3b 65 7e d1 bd 18 ed 39 be 47 ee 3b bc
       0.006170489 -0.10229186 -0.1815685 -0.011470384
000180 8c 3a a6 be dd 68 98 bd 6c 6e 81 3e 9b 89 e7 3b
       -0.32466543 -0.07441876 0.25279558 0.0070659644
000190 22 40 07 be 75 c0 2a 3e 80 e8 4a be 22 6b 32 3d
       -0.13208058 0.16674979 -0.19815254 0.0435592
0001a0 ab a5 3e 3e ea 63 95 be 85 d1 0c be b1 7c d0 bd
       0.18617885 -0.2917779 -0.137518 -0.10180033
0001b0 80 15 9c be b8 10 8f be 99 63 79 b9 ce 84 22 be
       -0.30485153 -0.27942443 -0.00023783593 -0.15870973
0001c0 73 03 a5 3c 7a f8 af be 09 24 4f 3e bd 9a 81 be
       0.020143246 -0.3436926 0.2022859 -0.25313368
0001d0 8b 06 c6 bc c7 2b 2f be 34 a1 8a 3d df 86 06 bd
       -0.024173042 -0.17106543 0.06769028 -0.032843467
0001e0 43 e0 b5 bd 2e 5b d8 3d 33 c0 6d be cd 99 b0 be
       -0.08880665 0.10564266 -0.2321785 -0.3449234
0001f0 30 e0 bb bd a7 86 17 be be 2f 6a 3d 18 e2 6d bd
       -0.0917362 -0.1479746 0.057174437 -0.058076948

deeptabular.0.encoder.mlp.dense_layer_2.0.weight f4 [64, 128]
000000 21 02 a8 3d 65 c8 67 3c 82 66 90 bd e1 82 56 3e
       0.08203531 0.014146899 -0.07050802 0.20948364
000010 0f 4f 13 bd 01 01 6c 3c 95 07 4d 3c 16 5b 74 bd
       -0.035964068 0.014404536 0.012514015 -0.05965718
000020 e8 de db 3d 79 4d 01 be 8e 9d 3c 3e 40 b7 af bd
       0.10735875 -0.1262721 0.18419477 -0.08579874
000030 88 08 e3 3c c8 ae fb bd 5c 69 ce 3d 8a cc 70 3c
       0.027714029 -0.12289196 0.100786895 0.014697203
000040 81 75 7f bd bd 0d 32 3e 37 a8 fd bc 90 6e 74 bd
       -0.06236792 0.17388053 -0.030964 -0.059675753
000050 44 5a 3d 3e ed 15 51 bd 17 3f 94 be 68 bd 04 be
       0.18491465 -0.0510463 -0.28954384 -0.12962878
000060 f7 bd 9b 3d c3 3a c5 bc 60 ed ea bd a2 a0 85 3e
       0.07604592 -0.024075871 -0.11471057 0.26099116
000070 7f 71 0a be b0 28 05 3e 99 83 3e 3d ff 4a 29 3c
       -0.13519858 0.13003802 0.04651222 0.010332822
000080 9c df 80 be 84 9a 91 bd 9b cf 6c be b9 ed b0 bd
       -0.251706 -0.0710955 -0.2312607 -0.08639092
000090 2c 3a 12 3d fa 44 c9 3d 08 9d 85 bd 2a 3d 9f be
       0.03570001 0.09827609 -0.06524092 -0.31101352
0000a0 6c 8b 48 be 98 7f 15 be 07 06 cc bc 9f 6a 26 3d
       -0.19584435 -0.14599454 -0.024905218 0.040629026
0000b0 e4 1b 43 be d7 82 12 bd 2d bd b0 be c6 22 e3 3d
       -0.19053608 -0.03576931 -0.3451933 0.11090617
0000c0 84 db 84 be ca 45 37 be 0f 0d 96 3b 22 4a b0 be
       -0.25948727 -0.17897716 0.0045791934 -0.3443156
0000d0 27 e2 2d 3d 38 5a 6f 3c b6 63 8c bd 6e 8d 59 3e
       0.042452004 0.014608912 -0.06854956 0.21245357
0000e0 33 31 00 3e f4 f0 09 3d 21 91 09 be 93 06 58 3d
       0.12518768 0.033677056 -0.13434269 0.052740645
0000f0 dd 7d 31 3d 2f 6b bb 3d be 36 f0 bc 8a b9 49 3e
       0.043332923 0.09151303 -0.029322978 0.19699684
000100 1c f7 86 bd 72 36 14 be da 98 bb 3c eb fa fb be
       -0.06590101 -0.14473894 0.022900034 -0.49214873
000110 fb bb ac be d0 dc 54 bd a5 94 80 bd 5a b9 20 3e
       -0.33737168 -0.051968396 -0.06278352 0.15695706
000120 48 db 68 be e0 91 dc bd 46 8e ae bb 60 fa 71 3d
       -0.22739899 -0.10770011 -0.005327019 0.059076667
000130 78 69 b6 3e 21 bd 54 3d 78 46 03 3d d0 d1 22 3d
       0.3562734 0.05193818 0.032049626 0.039750874
000140 12 28 b0 bd b0 5b 4f bd ac d3 93 bd e0 37 b9 3c
       -0.08601393 -0.05062455 -0.072181076 0.022609651
000150 56 e5 d6 bc a6 77 15 3e 22 85 1c bd 44 e9 98 be
       -0.026232403 0.14596424 -0.038212903 -0.29865468
000160 a6 28 7e 3c 03 18 8b 3c 46 f3 a6 bd 08 87 c2 bc
       0.015512621 0.016979223 -0.081518695 -0.023746029
000170 90 88 03 3d 91 df b0 bd 68 a6 f7 3c 42 7a 88 3e
       0.032112658 -0.08636392 0.030230716 0.26655775
000180 e6 35 88 be 15 fe af bd e2 c2 4a be 2f 5a 75 be
       -0.2660362 -0.08593384 -0.19800904 -0.23960184
000190 90 35 51 3d 91 bf 26 bf 46 71 15 3e 35 8e 08 be
       0.05107647 -0.6513606 0.14593992 -0.13335498
0001a0 b1 a0 5d be 7d 70 d9 be 4c 05 13 3c 89 44 df 3d
       -0.2164333 -0.42468634 0.008973431 0.10901744
0001b0 cd f7 49 3e 91 08 8d be b8 c0 93 bc eb 8e 4f 3e
       0.19723435 -0.27545598 -0.018036231 0.20269363
0001c0 40 11 8d 3d 04 8f f8 bd 34 50 72 be 2d 1a 3c bd
       0.06888056 -0.12136653 -0.23663408 -0.0459234
0001d0 af bd de 3d e5 56 f0 be ff 0f 03 3e 38 51 30 be
       0.10876023 -0.46941295 0.12799071 -0.17218482
0001e0 12 72 b3 bc bf da e7 3d f9 4e 65 be 52 46 fb bc
       -0.021904979 0.113210194 -0.22393407 -0.03067318
0001f0 eb 0c aa bd 9a ec 14 bd 39 88 91 3d 09 76 61 be
       -0.08303245 -0.036358453 0.071060605 -0.22017683
000200 64 66 e5 ba 7b ba bc be 13 be 36 be 52 81 80 be
       -0.0017501828 -0.36861023 -0.17845945 -0.25098664
000210 e1 94 54 bd b8 a8 57 be cb 2b d1 bd a2 fb 26 bd
       -0.051899794 -0.21060455 -0.10213431 -0.04076732
000220 f0 1f 5e be 83 d1 c0 bd c4 93 b3 3c a7 6a 30 3d
       -0.2169187 -0.09414961 0.021921046 0.04307046
000230 34 83 ed bc 10 a4 c1 bd 2b a5 8e bd b7 94 43 3e
       -0.028993227 -0.094551206 -0.06965097 0.19099699
000240 5f a2 ac 3d 43 d9 dd bb 5c cb fc 3c 17 7a 46 bd
       0.08429407 -0.0067702844 0.030858688 -0.048456278
000250 9e ec 5f bd 91 a1 bc bd 62 44 58 be 45 e5 ab bd
       -0.054669015 -0.09210504 -0.21119836 -0.08393339
000260 20 a8 db bd 92 7f c0 3c 96 2e 18 3d d2 f7 6a be
       -0.10725427 0.02349833 0.037153803 -0.22946098
000270 9b ce d5 bd 7c d5 2d be 4c 1b c9 3c c8 4b 95 bd
       -0.104397975 -0.16975969 0.024549149 -0.07289845
000280 52 97 3c 3d cc 3c c7 be 85 66 d8 3c 64 20 c1 bd
       0.046042748 -0.38913572 0.026416073 -0.09430006
000290 a9 44 99 bd a3 be 81 be 88 e9 3c bd 7a 0e 28 3e
       -0.07483799 -0.25340757 -0.04612115 0.16411772
0002a0 d0 86 8e 3d 27 d7 d6 be 57 36 53 3e 6f 7d 01 be
       0.06959307 -0.41961023 0.20626198 -0.12645505
0002b0 e1 11 03 3c 73 14 31 3d 99 05 2b be f7 dd 85 3e
       0.007999868 0.043232393 -0.16701354 0.26145908
0002c0 af b8 04 3d ea 61 3e 3d 8f ed 01 3e 56 c9 a0 3b
       0.03240269 0.046480097 0.12688278 0.0049068136
0002d0 94 74 b9 bc 9b 36 0e 3d 5e 68 fc bd 1c 8a e9 3d
       -0.022638597 0.034720045 -0.12324594 0.114032954
0002e0 08 03 06 ba c6 7a b4 3c 5b 1e 59 bc 63 ec c8 3d
       -0.0005112146 0.0220312 -0.013251866 0.09810712
0002f0 b3 ab b2 bd 6d 77 a1 be 19 e2 76 3e 71 cd 4d bd
       -0.08724155 -0.31536427 0.24109687 -0.050244752
000300 7d 3c 25 3e c1 1f c7 bd 2e c2 48 bd 2d 6c ff 3d
       0.16136356 -0.097228535 -0.04901331 0.12471805
000310 4f 8d 03 3d e4 ab 21 bd 9e eb 75 bd bf 57 46 be
       0.032117184 -0.03947057 -0.060039155 -0.1936941
000320 64 6e d8 3d a5 15 1a be e6 0c 91 bd 9e c3 11 be
       0.1056793 -0.15047319 -0.07082538 -0.14234778
000330 e8 5e 93 3e 3b c0 08 bd bc 3b f8 3a 54 eb 97 39
       0.28783345 -0.03338645 0.0018938701 0.00028976297
000340 5c 11 7c bd 77 64 42 be 63 75 19 be 80 fc 10 3d
       -0.061539993 -0.18983637 -0.14986186 0.035397053
000350 a1 49 c0 3b 4f 17 0a 3d 35 1a a5 bd 43 35 53 be
       0.0058681522 0.033713635 -0.08061639 -0.20625786
000360 02 0b ed bd 59 37 f0 bd 30 79 6a 3d 8b 1c 75 bc
       -0.11574365 -0.11729307 0.05724448 -0.014960418
000370 f1 6f ad bc fb fd aa bd 4d d8 b5 3d a3 83 12 be
       -0.021171542 -0.08349224 0.08879147 -0.14308028
000380 0f 51 97 be 1d 63 e4 bd cc 28 ae bd 14 cf 04 3c
       -0.2955403 -0.11151717 -0.08503875 0.008106012
000390 4d a1 93 3c fd 4c 8a bd 74 f1 bf bc e4 60 fe 3d
       0.01802125 -0.067529656 -0.023430564 0.12420824
0003a0 f9 23 84 bd 57 88 a6 be 92 b0 99 3d 8f 51 88 bd
       -0.06452174 -0.32525894 0.07504381 -0.06656181
0003b0 af d9 f1 3d 8b 67 e1 bd 2c d4 f5 bc 32 78 6a bd
       0.11809098 -0.110060774 -0.030008398 -0.057243533
0003c0 06 b1 14 be c6 b4 ab bd 6d 48 35 be 84 a0 62 3d
       -0.14520654 -0.08384089 -0.1770341 0.05532886
0003d0 48 53 66 3e 11 ca 30 bd ac 06 87 bc 39 cc 08 be
       0.22492707 -0.043161456 -0.016482674 -0.13359155
0003e0 7e 05 ed 3b 2b 0b 04 be c2 cf 0c bf bf 21 e2 bd
       0.0072333207 -0.12894885 -0.55004513 -0.11041593
0003f0 24 08 87 3d a9 b6 48 3c b8 96 c3 3d 9f 83 ec 3d
       0.065933496 0.012250581 0.09550232 0.11548542

deeptabular.0.encoder.mlp.dense_layer_2.0.bias f4 [64]
000000 51 a7 36 be 27 c3 19 bf ec ce 44 be 03 5c b2 be
       -0.17837264 -0.60063404 -0.1921956 -0.34835824
000010 63 84 9e 3e d7 67 e6 be 02 33 ad be 17 79 97 bd
       0.30960378 -0.450011 -0.33827978 -0.07396143
000020 16 38 0e bd 56 46 84 be 6e 6e 90 be 7b ae 9d 3e
       -0.034721456 -0.25834912 -0.2820925 0.3079718
000030 eb 08 a0 be 16 44 8a 3d 72 4b f5 3e 02 ae c1 bd
       -0.31256804 0.067512676 0.47909123 -0.094570175
000040 d8 06 c7 be d4 28 9f be 71 c3 0f bf 35 45 25 bf
       -0.3887241 -0.31085837 -0.56157595 -0.64558727
000050 82 a0 c8 be 50 c4 f5 be 28 55 0b 3e 6b 98 04 be
       -0.39184958 -0.48001337 0.13606703 -0.12948768
000060 bb be 21 be 15 55 9b be 21 97 e3 be 4f 59 92 be
       -0.15795414 -0.3033835 -0.4445124 -0.28583762
000070 03 3a 11 bf f7 a3 0f bd fd 13 92 be b0 68 db 3d
       -0.56729144 -0.03506848 -0.28530875 0.10713327
000080 fc 40 e7 be 7d 87 23 be a8 da aa be 39 66 26 be
       -0.45166767 -0.15969653 -0.33369946 -0.16249932
000090 48 92 00 3d 38 d8 32 bc bb 3f b3 3c 29 1b d3 be
       0.031389505 -0.010915808 0.021880975 -0.4123166
0000a0 5c 40 74 be e4 be cd 3d ba 92 99 be bf 8f ac 3e
       -0.23852676 0.10046175 -0.29994756 0.3370342
0000b0 f4 d1 6c 3e d1 55 cd be 20 28 d8 bd 33 e4 ab 3c
       0.23126966 -0.40104535 -0.10554528 0.020982837
0000c0 c7 1a 79 be d1 39 9f be ef 6a db be b6 b6 49 3e
       -0.24326621 -0.31098798 -0.4285502 0.19698605
0000d0 a1 34 b1 be 51 6f 8d be 52 fb f9 bd 24 ba 94 be
       -0.34610465 -0.2762399 -0.12206139 -0.29048264
0000e0 14 be 8a 3e da 40 af be 76 88 c0 bd c3 fc 21 3e
       0.27098143 -0.34229165 -0.09401028 0.15819077
0000f0 cc 24 03 bf 5a d3 cd bd db 27 a9 3e 85 10 88 3e
       -0.5122802 -0.10050078 0.3303822 0.26575103

deeptabular.0.encoder.mlp.dense_layer_3.0.weight f4 [32, 64]
000000 b5 28 47 bc 5f 4f 43 3e 6c 1f d2 bd 0b c7 96 be
       -0.012155701 0.19073246 -0.102598995 -0.29448733
000010 2f d0 70 bd 22 b7 6f 3e de a6 7c 3d 55 42 8d 3e
       -0.05879229 0.23409703 0.061682574 0.2758967
000020 27 b4 02 3d 1c ad 39 be 1d 24 18 3e 22 00 0d be
       0.031910088 -0.18132442 0.14857526 -0.13769582
000030 c6 78 d4 bd 12 ce dd 3d 64 a6 a7 bd 1a 80 e8 bc
       -0.10374598 0.108303204 -0.08186033 -0.028381396
000040 0d 0a cf 3a e9 c4 0d 3e 4e 83 0a 3e d1 41 65 bd
       0.0015795842 0.13844647 0.13526651 -0.05597097
000050 f3 5a c3 bc 8e 23 87 be f7 c9 3e 3e 57 f8 3d 3d
       -0.023847079 -0.26394314 0.18631731 0.046379413
000060 c0 ec 58 bd dd 2a 95 bd eb 19 ad bd b2 ce 0d be
       -0.052960157 -0.07283566 -0.08452209 -0.13848379
000070 d3 28 49 3d 8a 0e 66 3c 86 a0 02 be 13 9a 4b be
       0.0491112 0.014041552 -0.12756547 -0.19882993
000080 77 15 8f 3d b7 0f 82 bd 2b 71 a5 be 49 0a 37 3e
       0.06986516 -0.063506536 -0.32312903 0.17875017
000090 3c f1 3b be 5a 5f 64 bd 1a ed 7f bd 1c 3b 80 3b
       -0.18353742 -0.055754997 -0.062481977 0.0039132964
0000a0 35 46 27 be 45 81 40 bc 0d a0 95 3d d4 c8 7a be
       -0.16335376 -0.01174957 0.07305918 -0.24490672
0000b0 f4 39 c4 be 2a 96 3d 3e c6 07 6b 3e a3 85 b2 bc
       -0.38325465 0.18514314 0.22952184 -0.021792239
0000c0 a4 3b 80 3d 06 e0 7c be 4d ef 07 be 70 c5 cf 3c
       0.062613755 -0.24694833 -0.1327488 0.0253627
0000d0 2c cf ff 3d 1c a0 bc bd cc db 73 bd 8e ae b5 3c
       0.12490687 -0.09210226 -0.059535787 0.02217796
0000e0 28 60 e9 3c c0 76 d8 bd fd 61 0f 3d fb 62 c2 3d
       0.028488234 -0.10569525 0.03500556 0.09491535
0000f0 10 fb 9c 3e c2 ef 35 be 87 9f bc be 09 8f 35 be
       0.30660295 -0.17767242 -0.3684046 -0.17730345
000100 d3 d6 b1 be f6 48 2b be a6 16 57 3d 62 23 02 bf
       -0.3473421 -0.16727051 0.052511834 -0.5083524
000110 49 76 af bd f8 06 9b be 82 e9 c4 bd 44 fa 18 be
       -0.08567483 -0.30278754 -0.096148506 -0.14939219
000120 6d b0 db 3d 29 94 09 be 5f 5e b5 be 95 e9 2d bd
       0.1072701 -0.13435425 -0.35423562 -0.04245909
000130 c1 3b b5 be 56 9a 06 3e 5e 08 54 bc 2d 13 9b 3c
       -0.3539715 0.13144812 -0.012941448 0.018930042
000140 84 b3 aa bd 75 dd 66 be 9f b8 06 be 93 44 8b be
       -0.08335021 -0.22545417 -0.13156365 -0.27200755
000150 d9 d2 0f bf 5a 22 f0 bb 4d 85 0c bf 2e 4f 70 3d
       -0.56181103 -0.007328314 -0.548909 0.05866926
000160 72 2c 33 bf dd 7a 22 bc 96 ab 65 be 46 ac d9 be
       -0.69989693 -0.009916988 -0.22428736 -0.42514247
000170 98 ba 15 bd c2 da fe 3d 4a e6 1d be 04 eb 50 3c
       -0.036554903 0.124440685 -0.1541988 0.012751345
000180 c6 85 ac be 97 93 4e be ab 01 5a 3d 2e d7 ab be
       -0.3369581 -0.20173489 0.053224247 -0.33562607
000190 2e a5 e7 3e 44 e5 f9 3c 9d 87 02 3e e2 e5 25 bd
       0.4524321 0.03050483 0.12747045 -0.040502436
0001a0 91 3c ef be 22 ef 7d 3d 1b 32 d8 bc 28 64 75 3e
       -0.46725896 0.061995633 -0.02639108 0.23963988
0001b0 9b aa 19 3e d5 83 28 bf 40 33 c6 3b d1 f1 57 bd
       0.15006487 -0.6582616 0.00604859 -0.05272085
0001c0 d3 bf 3b be a9 82 82 3d 7e ed 07 bf e9 c0 50 be
       -0.18334894 0.06372578 -0.5309676 -0.2038609
0001d0 3a 22 a7 be 7f 13 c2 3b 33 b2 95 bd a9 9d 19 be
       -0.326433 0.0059227343 -0.073093794 -0.15001549
0001e0 b0 72 a2 be aa 38 61 bd 1c 50 c3 3c 82 22 14 3e
       -0.31728125 -0.05498568 0.02384191 0.14466289
0001f0 61 18 e2 bd b2 24 ee bd 3a 11 89 3e 49 e6 14 bd
       -0.11039806 -0.11628093 0.26770955 -0.03635243
000200 7b 79 08 be e2 74 ce 3c bf d3 71 bd d8 29 99 3d
       -0.13327591 0.025202218 -0.059039827 0.07478684
000210 d3 cc e8 bc 94 4e 68 3e 15 00 fc 3c b1 cf 14 be
       -0.02841798 0.22686225 0.030761758 -0.14532353
000220 37 a3 13 be ea 64 87 bd 0d 6a cd bd e1 a6 29 3d
       -0.1441773 -0.06611045 -0.10029993 0.041418914
000230 26 e4 e3 bd 9a 68 76 bc 4c c3 17 3e 27 78 55 be
       -0.111275 -0.015039587 0.14820594 -0.20846616
000240 e1 e4 73 bc aa 06 ee bd 34 50 c1 3d c1 92 25 bd
       -0.014886112 -0.11622365 0.09439126 -0.04042316
000250 cd 1d 85 bc 6f 69 99 bd d5 99 a0 3d ae 37 b3 bd
       -0.016249562 -0.07490813 0.07841841 -0.087508544
000260 df f4 99 bc 17 3b cd be d8 8b 81 bd a3 8b 1b 3d
       -0.018793521 -0.40084144 -0.06325501 0.037974965
000270 eb 9c 37 3e 24 b3 9e 3c 05 aa 23 be 5e 97 9d be
       0.17930953 0.01937253 -0.15982826 -0.30779546
000280 b4 10 38 be a1 cf 6c be 1e 5e c3 3d ce 6b b0 be
       -0.17975122 -0.23126079 0.09539436 -0.34457248
000290 ed 98 1f bd e9 91 ab 3d 55 12 35 be d2 c2 08 be
       -0.0389642 0.083774395 -0.17682774 -0.13355568
0002a0 7f 2f 4b be 5c 66 42 be 2b 9b 08 3e 65 dd 61 be
       -0.19842337 -0.1898436 0.13340442 -0.22057112
0002b0 df 98 02 39 fb 9f 0b 3c 9c 11 3e 3c c7 c7 08 bc
       0.00012454715 0.008522029 0.011600878 -0.008348412
0002c0 cb d0 cc bd 11 7f 46 be 1c 11 0a bb f7 bf 32 3d
       -0.100007616 -0.1938441 -0.0021067327 0.043640103
0002d0 cf 8f 55 bc 5b fb b1 3d ba e6 59 3d 18 30 71 3e
       -0.013034775 0.086905204 0.053198554 0.23553503
0002e0 47 12 58 be a8 60 13 be 0c 80 33 be ad 68 ec bd
       -0.21100722 -0.1439234 -0.17529315 -0.11543403
0002f0 7a ae e2 bd 2d bb e2 bd 34 b0 aa 3c 16 89 44 be
       -0.11068435 -0.11070857 0.020835973 -0.19192919
000300 47 da da 3d 34 3a 04 be 43 d5 07 3d 9a 65 75 be
       0.10686164 -0.12912828 0.033162367 -0.23964539
000310 db c8 85 be 3f 89 a2 3d bc aa 37 3d c6 76 4c bc
       -0.26129803 0.07936334 0.04484056 -0.01247949
000320 e2 ff cb 3e a0 ab 95 be ca 9b 96 bc 1a cb 49 be
       0.3984366 -0.29232502 -0.018384833 -0.19706383
000330 9b f7 42 3d f9 54 83 3e ee 90 c3 bd 98 a5 b1 bd
       0.047599416 0.25650766 -0.095491275 -0.086741626
000340 e5 81 c9 bd a9 29 12 be 93 68 a7 bc 14 a2 f4 3c
       -0.098392285 -0.14273705 -0.020435607 0.029862441
000350 ba d3 9d bc 20 64 72 3e 2d c6 6d be 73 02 31 be
       -0.019265998 0.23671007 -0.2322013 -0.1728609
000360 a9 c6 a0 be 09 47 93 bd 8f 2d ce bd 52 46 19 bf
       -0.31401566 -0.07191283 -0.10067283 -0.59872925
000370 f3 df bb 3b 72 6a 95 be a8 49 b9 bc 1c 6e 07 3d
       0.005733484 -0.29182774 -0.02261813 0.033063993
000380 b3 ce 05 3e 65 ac 77 be ed 96 f6 bd 48 54 2f 3e
       0.1306713 -0.24186857 -0.120405056 0.17121994
000390 29 f9 10 3e ec b3 e2 bd dd f6 90 3e ad 79 3d be
       0.14157547 -0.110694736 0.28313342 -0.18503447
0003a0 7e 67 5d be 40 2b 19 3d ef e4 ca bd 22 3a bc 3d
       -0.2162151 0.037394762 -0.09906947 0.091907755
0003b0 70 f2 3d be be ff e5 bd 4d 4f 4a be 81 8d 6e bd
       -0.18549514 -0.112304196 -0.19756813 -0.058240417
0003c0 b3 05 47 bd bc 89 81 be c5 08 9e 3d 36 fd d2 3d
       -0.04858942 -0.25300395 0.077165164 0.103022024
0003d0 ce 5c cc be d4 97 00 3f d3 a4 84 be 0c 64 18 be
       -0.39914554 0.5023167 -0.25907 -0.14881915
0003e0 c9 65 aa be 53 bf a1 be c2 17 4a be 7d 44 37 be
       -0.3328078 -0.3159128 -0.19735625 -0.1789722
0003f0 9d 4d 96 be 6c 65 9c be 86 f1 90 be fd d2 5e 3d
       -0.2935609 -0.3054613 -0.28309268 0.054400433

deeptabular.0.encoder.mlp.dense_layer_3.0.bias f4 [32]
000000 52 7c c9 bd f6 8c 54 3f 36 d2 82 be f3 89 29 3e
       -0.09838165 0.8302759 -0.25551003 0.1655653
000010 50 d3 0b 3e fd 7c 47 3e e2 9e bb be 4c 7d 23 3e
       0.13654828 0.19481273 -0.36644655 0.15965766
000020 dc c9 a8 be 18 cb 1a 3f c9 1a d6 3e 83 d4 fc be
       -0.32966506 0.60466146 0.4181731 -0.49380884
000030 97 bf 74 be 35 3c 15 be 7b ac 8d 3e f5 7c 8f 3e
       -0.2390121 -0.14573748 0.27670655 0.28025022
000040 5b 8d 18 be b8 be 26 3e c8 57 5d 3e 3c f2 e4 bc
       -0.14897673 0.16283691 0.21615517 -0.027947538
000050 8f 73 de 3e b3 f5 43 3e 14 99 20 3e 46 92 73 be
       0.4344754 0.19136696 0.15683395 -0.23786268
000060 d1 4a af 3e 02 64 ff be 89 1b ca 3c bf 6c 1b be
       0.34236768 -0.49880987 0.024671333 -0.15178202
000070 96 ff 57 be 69 78 91 be 7a d1 f0 bd 91 65 e2 be
       -0.21093592 -0.28412178 -0.117587045 -0.44218114

deeptabular.1.weight f4 [1, 32]
000000 fc 78 3d 3c bb c6 61 3d 98 5e 23 3d f1 4f b0 bb
       0.011564489 0.055121165 0.039885134 -0.0053806235
000010 e8 56 e7 bb cb 9a 04 bc 9c b0 07 bd 2f c3 12 3d
       -0.0070599206 -0.008093546 -0.033127412 0.035830673
000020 a3 57 21 3c b2 37 82 3c 98 f9 b0 bc 86 20 fc 3c
       0.009847554 0.015895698 -0.02160339 0.030777227
000030 f5 f9 8e bc 30 6d 28 bc 1b 90 f6 bd 30 61 80 bd
       -0.017453173 -0.010279939 -0.12039205 -0.06268537
000040 f9 e0 c4 3c 28 8b 0e 3c b1 e3 41 3d 62 82 80 bd
       0.024033057 0.00870017 0.047336284 -0.062748685
000050 92 b4 08 3c 41 9f e2 bd 1a d1 cb 3c 3a 4b 0c bd
       0.008343833 -0.110655315 0.02487998 -0.03425143
000060 29 2b d5 bc 9e b4 82 3b 18 a0 50 3d 81 31 b8 3c
       -0.026021557 0.0039888164 0.050933927 0.022484543
000070 7e 8b 8a bc 19 b6 1a bd dc 53 0d 3d 7a db 58 3b
       -0.016912218 -0.037771318 0.034503803 0.0033089803
